labyrinth/data/2arhmm_s_params.npz (npz, 293124 bytes, 7 tensors)

arr_0 f8 [2]
-0.9496742241376613 -0.48917345770843035
00000000: 51d0 d032 bb63 eebf e073 bb30 9e4e dfbf

arr_1 f8 [2, 2]
-0.17478460441749863 -2.9708261661417756 -3.5578037345104003 -0.09971552812330607
00000000: 53a2 e887 575f c6bf 9e70 4d82 40c4 07c0
00000010: 7f78 eacd 6176 0cc0 5766 31f4 f486 b9bf

arr_2 f8 [127, 32]
0.29481528940028945 0.45974508925204144 0.194892920904368 -0.03818802501568462 0.6129197010796243 -0.16819316860981665 0.12320124670142281 -0.20749406445055554
0.50265716598476 0.1983025080189302 0.38676563803242947 -0.5597281670751919 0.18195706001632608 -0.10447028780178085 0.4794813890807338 0.1622731748404901
-0.15427541483770624 0.08224782011716317 -0.19858282022538604 -0.541194171937225 -0.1464438625095165 0.2556503744038084 0.40368887048018887 -0.09878257895954418
0.03699339677966155 -0.13841068237262869 0.016440331188741403 -0.06073658791261984 -0.09199028194386394 -0.0387068514904314 -0.08886705943936152 -0.22257119772023176
-0.48016175300936015 -0.61311174914918 -0.34801987755385777 -0.010038476965379343 -0.5289723966073164 0.10883018655424556 -0.19254494830505542 0.3628995045891542
-0.7166805529594971 -0.07877273060532439 -0.513532385147255 0.23290686167923363 -0.3133046925994946 0.12196507288355884 -0.13220035186276563 -0.18156719274508143
-0.055063078233270446 0.10263761320216834 0.23565477185689143 0.35159584930431176 0.15138154381504493 -0.00847438745458851 0.09659013925884744 0.046370591171914236
-0.2640400023686583 0.22462024726928173 0.25037543431289727 0.07204240363898684 0.23025875511347912 0.2274079864987138 -0.07391969113669258 0.16744287089693688
0.0014385296425070057 -0.43710027406016505 -0.23032349181764397 -0.3586003368811235 -0.4009449831086814 -0.13681726324453528 -0.22874207112649983 0.4302451059525208
-0.32996732051869654 0.049565394456130535 -0.18537007325889895 0.24736464674931669 -0.1964220595613684 -0.05759114851174134 -0.18882749775823654 -0.07268289107499332
-0.04743454405944171 -0.17949490383011335 0.2473567992472375 0.2827643196991183 0.2557626482340652 0.14169725472558156 -0.20369220332805538 0.2666662117547509
-0.042272739064489626 0.2962537227194472 0.20601841736937712 0.37904017859799455 0.1259365827167518 0.4141256979609536 -0.07005154720161624 0.14277868746807812
-0.056536363286052556 -0.24716033412194277 -0.025725562098552337 -0.01152088701928931 -0.34277950425429626 -0.03433579606694346 -0.03036854835254326 0.012242914419863799
-0.24016063179491354 -0.024167594590667245 0.004963782921459905 0.2629931730677819 -0.13198584386016812 0.23132752069259663 -0.13327345864793505 0.020951684526275778
0.08219192274233697 -0.22184775242070037 -0.039866374903323135 0.07580272307739665 0.0857219618231274 -0.07560407320481602 0.056313253417797596 -0.14630503275278997
-0.30678166107699945 -0.06171983095061671 0.10829103105418558 0.14513230401339933 0.01770974565708355 0.06868957328459192 -0.01646951401461506 -0.045801327533906734
-0.0532379307210805 -0.025711214631443016 -0.17164093928067412 -0.23274436033433296 0.17985528020319816 0.11481574338712026 0.05318380605139741 0.09663209824615049
0.1277608701687543 -0.057884963925997346 -0.06489613104585042 0.0857357331214682 -0.11184354496669312 0.16765460888340822 0.06272024492807551 -0.09222785259049626
0.021387328448050965 -0.04905062340928746 -0.030837701373235358 0.008450859723140263 0.09705460439304173 0.07638785347677185 -0.10474370190010003 0.10889583042677366
-0.03658638531595083 -0.19533517379263166 0.07410451003811284 -0.188562986192485 -0.032619690692616735 0.14224529062913419 0.1451878173239606 -0.030712397052298866
-0.12875165959361717 -0.16356679632413235 -0.3287168891762376 0.2344143033212475 -0.24100819944018226 0.23360888472903016 -0.04562636000069665 0.2719042775146774
0.06499633452042082 0.07654471013941849 0.15494960322834422 0.05885238427937301 0.03596727759154866 -0.07363200935434545 -0.2246237638639421 -0.09354622937955122
-0.14614042099325697 -0.13350478787470363 0.15325465331926752 0.06470227021923762 -0.02175327454823933 -0.10006119999381832 -0.13801428859463807 0.2627157901016367
0.12773087644490932 0.23361907327721712 -0.06778058005783308 -0.028898129076524108 0.001714763564289227 0.04268144469868459 -0.11402770479269797 -0.061237728080719374
0.04428466528437799 -0.10155866684583392 -0.013728824012410427 0.09028020940761862 -0.25765492339726237 -0.13227461429356807 0.12441392088583784 0.1458018822224894
-0.036196971787473886 -0.08158817510764221 -0.08602828772829849 0.06809682907841139 -0.19448909834167258 -0.07135304229405282 -0.3801323980411614 -0.058091836996922705
-0.1140691343685618 -0.03697758349227621 0.26777649429297 0.193680493661155 -0.01964793629324449 0.11135602463958075 -0.0354168796644381 0.21317656073933533
-0.12028070842329265 0.13816509354644604 0.21991579500709246 0.004008975527919825 0.007016195433298635 0.12312408369229545 -0.13841233920704596 -0.2091632014446529
0.06711998072528988 0.06667884930966511 0.09941084120001838 -0.006791027342633314 -0.10475191945418037 0.010738516037498183 -0.11747080442144224 -0.15622033491998844
-0.21151700124767078 0.17167876681472335 -0.1352643844552014 -0.2515837270729292 -0.15663292843083534 0.03743690623777832 -0.008004046313129431 -0.011878537758363119
-0.18412255356982746 -0.005468053794963862 0.1305277183880598 -0.051137849908855344 0.16233022442244474 -0.14833660956444575 0.033999008714777346 0.017623227136629883
0.0764204662879281 0.0002418556499686297 0.21819770627275548 -0.11008811537154836 0.0026810618510446555 -0.07307599495517791 0.031306360433229916 -0.14510197572674147
00000000: f270 95f2 40de d23f 3562 b5aa 766c dd3f
00000010: 5aca c050 40f2 c83f 8e17 157d 618d a3bf
00000020: 30c1 e6c6 099d e33f ca7d 4b8f 5a87 c5bf
00000030: c5b6 68ed 1d8a bf3f bdf1 765e 2a8f cabf
00000040: 9525 207b c415 e03f 87fa 5301 fa61 c93f
00000050: 0637 a4a9 c4c0 d83f 7a9d 870b 4be9 e1bf
00000060: 69f1 0573 5e4a c73f cb29 8395 90be babf
00000070: 221d 49b5 d2af de3f 949f 7a0d 5ec5 c43f
00000080: 1403 a7fa 4bbf c3bf ba0c 9271 310e b53f
00000090: 762e 356f 296b c9bf a532 a870 7651 e1bf
000000a0: 55d2 1628 acbe c2bf 9d91 5163 935c d03f
000000b0: 8c2e 1ed8 09d6 d93f 3cb8 0baa d049 b9bf
000000c0: 9556 ac6a ccf0 a23f d58e 1af5 70b7 c1bf
000000d0: d509 2af3 bbd5 903f c3ba 82b5 dd18 afbf
000000e0: c8ab 7fd4 ac8c b7bf ffa7 906a 62d1 a3bf
000000f0: c4d6 fbd9 fdbf b6bf 86b6 9e87 367d ccbf
00000100: 5ac6 7d5c f8ba debf 6073 ec87 9c9e e3bf
00000110: 5ee9 1c2a f545 d6bf dcc4 2492 0d8f 84bf
00000120: 0949 fd84 57ed e0bf 9e6c 118c 4bdc bb3f
00000130: f877 fd17 50a5 c8bf 327b fcd7 be39 d73f
00000140: d07c 140e 0cef e6bf 7638 c41d 732a b4bf
00000150: 679e f477 db6e e0bf 2291 f65c e4cf cd3f
00000160: 7f7b 1920 2f0d d4bf 3005 4a5f 1a39 bf3f
00000170: 3e98 e2ed f0eb c0bf 7eee 6e01 983d c7bf
00000180: a83d 7550 3a31 acbf a7f5 0a68 7546 ba3f
00000190: bcc6 2281 ef29 ce3f 9ef7 8ae0 8b80 d63f
000001a0: 76a9 f36d 7860 c33f 03cb c407 055b 81bf
000001b0: 1a9b 3ba1 21ba b83f d2bb 28d9 e2bd a73f
000001c0: ea95 c009 08e6 d0bf 6f3f 0534 5bc0 cc3f
000001d0: c91f 86af 2606 d03f 80ff 8df7 5e71 b23f
000001e0: 973f 6a6f 1e79 cd3f 523b 6e74 b41b cd3f
000001f0: 6e67 f69f 66ec b2bf 58b0 399b c46e c53f
00000200: db8f 3571 a191 573f 944e 8a6d 73f9 dbbf
00000210: 27bc 6d7c 3d7b cdbf e94b cfd3 4ef3 d6bf
00000220: 9d9c 7c25 15a9 d9bf a1ed 9463 3a83 c1bf
00000230: 6193 5a91 6b47 cdbf e120 d5c4 2289 db3f
00000240: 6b19 9840 2f1e d5bf a4a3 67a8 a260 a93f
00000250: 97ec 26e1 34ba c7bf c8c9 fc0d a5a9 cf3f
00000260: a1b7 03a9 5b24 c9bf a644 cb46 967c adbf
00000270: 8a83 badb 7f2b c8bf e454 2590 589b b2bf
00000280: e237 df2e 5749 a8bf 4cdf df62 b0f9 c6bf
00000290: 4be5 9a39 63a9 cf3f 7456 6584 cf18 d23f
000002a0: cd08 6d4c 6a5e d03f 7b5b 7db9 2223 c23f
000002b0: 4c41 df0b 9612 cabf d8d4 9b28 0f11 d13f
000002c0: b6b1 96bf c5a4 a5bf 637d 992c d2f5 d23f
000002d0: d1d1 7cbe cf5e ca3f 5ab2 bcbc 3142 d83f
000002e0: a8b8 11a0 b01e c03f e53a 4b12 0981 da3f
000002f0: 5ae0 43f0 e5ee b1bf a9df 9e70 9246 c23f
00000300: a95d b28e 55f2 acbf e609 f627 f3a2 cfbf
00000310: 37ba 893f cd57 9abf 7604 c047 4398 87bf
00000320: 10b9 2072 19f0 d5bf 7d19 6122 7694 a1bf
00000330: 2e32 01c8 ee18 9fbf bd0d 5428 d012 893f
00000340: dc44 ac65 95bd cebf 8e42 8fd1 63bf 98bf
00000350: dc6a fe54 e754 743f dc6e 5951 e1d4 d03f
00000360: 8d0a 7581 e9e4 c0bf 370d 05e4 239c cd3f
00000370: 0caa 28cd 1a0f c1bf f289 58bf 5b74 953f
00000380: 5677 2ca4 870a b53f 0244 abd4 8165 ccbf
00000390: 52f6 d690 5d69 a4bf 87ae 90a8 ce67 b33f
000003a0: 874c 94de dff1 b53f 52ec dbdd c95a b3bf
000003b0: b287 853b 17d5 ac3f a9eb 7491 1fba c2bf
000003c0: 32a6 558c 4fa2 d3bf ed24 e5de bd99 afbf
000003d0: d0ed d304 f6b8 bb3f b653 aa01 b293 c23f
000003e0: efac abe9 8022 923f 6961 d5ce a395 b13f
000003f0: 638e 4b60 62dd 90bf 0d37 be87 4573 a7bf
00000400: 4d1f b586 0042 abbf 6710 ee67 0a54 9abf
00000410: 6fbf 6e8e 54f8 c5bf 7371 fb33 91ca cdbf
00000420: db29 3e71 7f05 c73f 55e2 e986 9064 bd3f
00000430: 43ca 5567 e83a ab3f 0809 b695 e1bc b83f
00000440: a1a9 8adb 775a c03f 880e fc15 19a3 adbf
00000450: 6d96 7a68 089d b0bf 48f4 dae9 c6f2 b53f
00000460: 2791 e64f c7a1 bcbf bcc5 16cb b475 c53f
00000470: b260 c318 6f0e b03f c00f a89a 3e9c b7bf
00000480: 2fc9 ee50 8fe6 953f b158 c8ce 291d a9bf
00000490: 5906 871b eb93 9fbf 695f 1231 af4e 813f
000004a0: 5a59 cb0f 92d8 b83f 5c8f 7e84 278e b33f
000004b0: 8d76 1fb6 7bd0 babf a98f 5ade 98e0 bb3f
000004c0: b15c d260 73bb a2bf 7852 9933 be00 c9bf
000004d0: 638c 195f 83f8 b23f bb66 77f9 d422 c8bf
000004e0: 32fa 7531 87b3 a0bf 058e a1fb 1735 c23f
000004f0: 658e 97af 8395 c23f f980 af13 1273 9fbf
00000500: da51 a133 ef7a c0bf e239 76bc c1ef c4bf
00000510: 31e8 2990 b209 d5bf 655c 3db3 4901 ce3f
00000520: 38eb 544f 5bd9 cebf 0bad fb5b e5e6 cd3f
00000530: 31b8 1398 565c a7bf e45a e432 e166 d13f
00000540: 7505 208b 99a3 b03f bc08 bb22 6f98 b33f
00000550: ca6b 327b 63d5 c33f 3106 8b53 e621 ae3f
00000560: b8b5 f691 4d6a a23f 319d 1d20 8cd9 b2bf
00000570: 7f9b d9b3 78c0 ccbf dd6a d94b a5f2 b7bf
00000580: 3c15 65b4 bab4 c2bf a300 e454 af16 c1bf
00000590: 3ea8 fb35 d99d c33f 7b8e 91f6 5390 b03f
000005a0: aff8 0f8b 7d46 96bf 4e6c 925d 9c9d b9bf
000005b0: c184 f2c3 73aa c1bf f246 a8e3 55d0 d03f
000005c0: 4499 8240 7c59 c03f dd46 b9d3 3ae7 cd3f
000005d0: 52fd a66e 115a b1bf 9e70 329d 7897 9dbf
000005e0: dda5 745b 3d18 5c3f cbf6 40a2 57da a53f
000005f0: 382e ec6e eb30 bdbf f1ab c62e 8d5a afbf
00000600: fbae 38ca 7aac a63f 606c bab0 bfff b9bf
00000610: 5caf 2a91 db1d 8cbf 99ba e192 9a1c b73f
00000620: 9241 6913 6b7d d0bf 8aae 3de3 5fee c0bf
00000630: 9b2e 5f39 97d9 bf3f 82a0 ebd5 a2a9 c23f
00000640: f836 15d4 6888 a2bf 84e0 d36f f6e2 b4bf
00000650: 6eec 522a f305 b6bf 5e63 da35 cb6e b13f
00000660: 632b 67ce 04e5 c8bf f880 1f67 3144 b2bf
00000670: 6e28 6fd6 1654 d8bf 16f8 2198 36be adbf
00000680: 9f93 9881 a233 bdbf 91a1 91cf b9ee a2bf
00000690: b60d 6805 4023 d13f fbea 12bd 85ca c83f
000006a0: c8e5 40af 961e 94bf 3a21 0a14 d481 bc3f
000006b0: a42f c547 2922 a2bf 1419 539a 5e49 cb3f
000006c0: 818b 046d b7ca bebf c189 1dcf 64af c13f
000006d0: 60f3 b665 3326 cc3f 29ad 862c b76b 703f
000006e0: 4f92 da9e 03bd 7c3f b9f1 ce58 0f85 bf3f
000006f0: 57e9 20db 7eb7 c1bf f69f dd1a dcc5 cabf
00000700: a68e 1f6a c62e b13f 54b3 1e75 dd11 b13f
00000710: e569 d227 fd72 b93f 3e52 7c85 e8d0 7bbf
00000720: efb9 3f94 05d1 babf 754e 8239 13fe 853f
00000730: 7b93 390f 9112 bebf 50cb b926 07ff c3bf
00000740: f70f 7435 fd12 cbbf 3384 71e0 91f9 c53f
00000750: 843a c6e5 5750 c1bf 32fa fea1 f219 d0bf
00000760: 9d27 8b3c 8c0c c4bf 54cb e81f ee2a a33f
00000770: f358 34e9 6c64 80bf 415f 9259 c653 88bf
00000780: d9ea 04ed 5391 c7bf 13e1 8d83 ab65 76bf
00000790: 195f d9dc 21b5 c03f 2980 e481 bd2e aabf
000007a0: 99fb 859e 3cc7 c43f 057d 70ab b1fc c2bf
000007b0: b082 0d6d 5168 a13f fda5 cec0 d20b 923f
000007c0: 09a4 73ab 4a90 b33f 6f85 c436 54b3 2f3f
000007d0: 3479 4006 e7ed cb3f 96f6 3217 bc2e bcbf
000007e0: ed53 001f 98f6 653f b884 74c0 1bb5 b2bf
000007f0: 965d 6f24 6307 a03f 5d69 2a98 b392 c2bf

arr_3 f8 [1, 32]
-0.0037192740132885134 0.014267719242545857 -0.07362977391172196 -0.02446936657510545 -0.0017550297298362873 0.0034474226710258238 -0.027304163275072246 0.03286501994990408
0.021646704828605326 -0.006020898544356112 -0.0213163075578713 0.04232111471455307 -0.026394441137801553 0.017654377170606233 -0.018731169548765525 -0.03905775963801435
-0.005312374912003031 -0.0036029068450291976 0.039552030448827095 0.046464353903554 0.03373448438919457 -0.014041865746107505 -0.025256733016679522 0.047078327438141644
0.0010527484525783431 0.03523973115347303 0.06576915878466844 0.013149241158817642 0.06035928334264098 0.012595059319483601 -0.023851512046394723 0.005778956642221247
00000000: d6dd 0f08 e277 6ebf 302e 48dc 6438 8d3f
00000010: ce74 f69e 66d9 b2bf 3e91 c664 7f0e 99bf
00000020: 620b c3d2 20c1 5cbf 00d9 14f4 c43d 6c3f
00000030: a38b 3e61 9ff5 9bbf fe04 bc13 afd3 a03f
00000040: 8458 38c5 8d2a 963f bfdd 72a5 5ea9 78bf
00000050: 0584 542f f1d3 95bf a72f 42f7 1cab a53f
00000060: e4a5 eef5 2407 9bbf 1be6 5032 fd13 923f
00000070: 80d8 8282 432e 93bf fac0 99f0 60ff a3bf
00000080: 39a5 2dc8 6dc2 75bf 35e8 3ce2 d783 6dbf
00000090: 8745 89ea 2940 a43f 151d e400 2dca a73f
000000a0: 0fe5 6576 a545 a13f 251e 3c51 fbc1 8cbf
000000b0: 80e4 3da9 e6dc 99bf 1df7 6489 a61a a83f
000000c0: c5ea 2e0b 8c3f 513f 33e3 a529 f10a a23f
000000d0: fcc9 1062 3fd6 b03f f667 f445 fded 8a3f
000000e0: 83eb ee77 69e7 ae3f d267 f23e 70cb 893f
000000f0: 8b33 cce0 876c 98bf dc91 88dc acab 773f

arr_4 f8 [32, 2]
0.6604592750280912 -0.4179834549517483 1.0551627390656535 -1.0764450294396968 0.7196214660255399 -0.47508579113000776 0.11771528747926807 -0.34796685667005545
1.0161243763455736 -0.9464600269039857 0.016674252122897498 0.48334768941120376 -0.03987758536862663 -0.231117738111285 -1.2016510389389936 0.465990087661432
1.2127156038577718 -1.0473382248336536 0.44802882660224774 0.13633191615773393 0.9180234013899341 -0.844513924876636 -1.0059495160835723 0.7441592585069058
0.08859035593295386 -0.7422707215277193 -0.06882031213893663 0.40811433831850547 0.4114209643811263 -0.4673360753818764 0.37427611457569043 -0.011428190444485906
0.10289452218637185 -0.5357763487262251 0.03178155459260794 -0.2749789741138021 -0.6465341502605975 0.5002762345504851 -0.9078747177997435 0.7093186123380779
-0.5697080968716896 0.338027817854597 0.16410264891584259 -0.5800755979144384 -0.20085614086215572 -0.49570929575149153 -0.6499451039200072 0.31375958311658214
0.298159300065894 -0.19274955565055063 -0.9352420205968519 0.3542745451023022 -0.5871310127826532 0.2241167750808559 -0.29710333738939626 0.6172517187161561
-0.26372572925707655 0.3440812979450021 -0.750929273857861 0.6337359171870723 0.35932074720853746 -0.1494502747918999 -0.16885116242522957 0.35508123033880795
00000000: 97bc 527d 7b22 e53f b95b 52ad 3dc0 dabf
00000010: 8dea 0353 f2e1 f03f 012a 566c 1e39 f1bf
00000020: 5f89 c298 2307 e73f a1a6 ec3b ce67 debf
00000030: 2873 f6cd 9622 be3f 0259 5fc7 1645 d6bf
00000040: 8329 51a2 0b42 f03f c7c3 d089 6649 eebf
00000050: b860 361e 0e13 913f fe91 a725 2bef de3f
00000060: c1de 00ba d56a a4bf b852 5b1b 4495 cdbf
00000070: 8d28 9770 f639 f3bf 8806 b116 c8d2 dd3f
00000080: 37b0 1e7a 4867 f33f 072e f8b9 e5c1 f0bf
00000090: 8e00 7b19 81ac dc3f a234 a600 5373 c13f
000000a0: 9dd6 bd9c 7260 ed3f 7a93 0b11 4206 ebbf
000000b0: 7318 1085 5e18 f0bf 4bb0 c913 27d0 e73f
000000c0: ea18 7989 dbad b63f 14ad 3787 aec0 e7bf
000000d0: 44ef ef3d 359e b1bf 87d3 069a 8b1e da3f
000000e0: 4af7 b998 b854 da3f c264 0092 d5e8 ddbf
000000f0: d2b2 f1cd 23f4 d73f e534 b1c1 a967 87bf
00000100: 185f ba9f 4b57 ba3f 51fb f770 1425 e1bf
00000110: 86bd 2e03 ac45 a03f a202 3a69 4199 d1bf
00000120: aeb9 e362 68b0 e4bf 0f88 4b4e 4302 e03f
00000130: 8615 ba47 4f0d edbf eaf4 4df2 bcb2 e63f
00000140: df91 8a79 0c3b e2bf 24b8 b46d 3fa2 d53f
00000150: e0e7 23cb 5001 c53f 4d01 48b3 fa8f e2bf
00000160: c313 1a6e a7b5 c9bf b1da 647b b3b9 dfbf
00000170: 1d04 b1ac 59cc e4bf 46b5 1213 a314 d43f
00000180: 4000 b2be 0a15 d33f 0438 eb76 04ac c8bf
00000190: b8de 89ac 80ed edbf 3142 4124 6fac d63f
000001a0: a6cd 4bfa c6c9 e2bf 9f87 bac5 dbaf cc3f
000001b0: 9fac 67b7 bd03 d3bf 4e24 29ad 86c0 e33f
000001c0: 1977 91e1 e1e0 d0bf 70b2 7590 6d05 d63f
000001d0: 6883 1ad4 9c07 e8bf 2dcf d38b 9047 e43f
000001e0: a63c 8272 1cff d63f 9501 4ec5 2f21 c3bf
000001f0: 5804 4136 ea9c c5bf c3a1 ee9f a6b9 d63f

arr_5 f8 [1, 2]
-0.055805631658722876 0.0558056316587083
00000000: f04c d045 8e92 acbf bb44 d045 8e92 ac3f

arr_6 f8 [2, 1, 127, 127]
-1.553747046550602 -2.4201902020333166 -0.3600197742458281 -19.204881904325344 -19.204881904325344 -19.204881904325344 -6.228077186774604 -13.965934257897588
-19.204881904325344 -19.204881904325344 -19.204881904325344 -19.204881904325344 -19.204881904325344 -19.204881904325344 -19.204881904325344 -19.204881904325344
-19.204881904325344 -19.204881904325344 -19.204881904325344 -19.204881904325344 -19.204881904325344 -19.204881904325344 -19.204881904325344 -19.204881904325344
-19.204881904325344 -19.204881904325344 -19.204881904325344 -19.204881904325344 -19.204881904325344 -19.204881904325344 -19.204881904325344 -19.204881904325344
-19.204881904325344 -19.204881904325344 -19.204881904325344 -12.441856920494578 -19.204881904325344 -19.204881904325344 -19.204881904325344 -19.204881904325344
-19.204881904325344 -19.204881904325344 -19.204881904325344 -19.204881904325344 -19.204881904325344 -19.204881904325344 -19.204881904325344 -19.204881904325344
-19.204881904325344 -19.204881904325344 -19.204881904325344 -19.204881904325344 -19.204881904325344 -19.204881904325344 -19.204881904325344 -19.204881904325344
-19.204881904325344 -19.204881904325344 -19.204881904325344 -19.204881904325344 -19.204881904325344 -19.204881904325344 -19.204881904325344 -19.204881904325344
-19.204881904325344 -19.204881904325344 -19.204881904325344 -19.204881904325344 -19.204881904325344 -19.204881904325344 -19.204881904325344 -19.204881904325344
-19.204881904325344 -19.204881904325344 -19.204881904325344 -19.204881904325344 -19.204881904325344 -19.204881904325344 -19.204881904325344 -19.204881904325344
-19.204881904325344 -19.204881904325344 -19.204881904325344 -19.204881904325344 -19.204881904325344 -19.204881904325344 -19.204881904325344 -19.204881904325344
-19.204881904325344 -19.204881904325344 -19.204881904325344 -19.204881904325344 -19.204881904325344 -19.204881904325344 -19.204881904325344 -19.204881904325344
-19.204881904325344 -19.204881904325344 -19.204881904325344 -19.204881904325344 -19.204881904325344 -19.204881904325344 -19.204881904325344 -19.204881904325344
-19.204881904325344 -19.204881904325344 -19.204881904325344 -19.204881904325344 -19.204881904325344 -19.204881904325344 -19.204881904325344 -19.204881904325344
-19.204881904325344 -19.204881904325344 -19.204881904325344 -19.204881904325344 -19.204881904325344 -19.204881904325344 -19.204881904325344 -19.204881904325344
-19.204881904325344 -19.204881904325344 -19.204881904325344 -19.204881904325344 -19.204881904325344 -19.204881904325344 -19.204881904325344 -0.5100231303600935
-19.107304072953262 -7.594513450999377 -1.6596291938268701 -1.5673268463591339 -19.107304072953262 -19.107304072953262 -19.107304072953262 -19.107304072953262
-8.799128287004189 -9.862892236001446 -19.107304072953262 -19.107304072953262 -19.107304072953262 -19.107304072953262 -19.107304072953262 -19.107304072953262
-19.107304072953262 -19.107304072953262 -19.107304072953262 -19.107304072953262 -19.107304072953262 -19.107304072953262 -19.107304072953262 -19.107304072953262
-19.107304072953262 -19.107304072953262 -19.107304072953262 -19.107304072953262 -19.107304072953262 -19.107304072953262 -19.107304072953262 -19.107304072953262
-19.107304072953262 -19.107304072953262 -19.107304072953262 -19.107304072953262 -19.107304072953262 -19.107304072953262 -19.107304072953262 -19.107304072953262
-19.107304072953262 -19.107304072953262 -19.107304072953262 -19.107304072953262 -19.107304072953262 -19.107304072953262 -19.107304072953262 -19.107304072953262
-19.107304072953262 -19.107304072953262 -19.107304072953262 -19.107304072953262 -19.107304072953262 -19.107304072953262 -19.107304072953262 -19.107304072953262
-19.107304072953262 -19.107304072953262 -19.107304072953262 -19.107304072953262 -19.107304072953262 -19.107304072953262 -19.107304072953262 -19.107304072953262
-19.107304072953262 -19.107304072953262 -19.107304072953262 -19.107304072953262 -19.107304072953262 -19.107304072953262 -19.107304072953262 -19.107304072953262
-19.107304072953262 -19.107304072953262 -19.107304072953262 -19.107304072953262 -19.107304072953262 -19.107304072953262 -19.107304072953262 -19.107304072953262
-19.107304072953262 -19.107304072953262 -19.107304072953262 -19.107304072953262 -19.107304072953262 -19.107304072953262 -19.107304072953262 -19.107304072953262
-19.107304072953262 -19.107304072953262 -19.107304072953262 -19.107304072953262 -19.107304072953262 -19.107304072953262 -19.107304072953262 -19.107304072953262
-19.107304072953262 -19.107304072953262 -19.107304072953262 -19.107304072953262 -19.107304072953262 -19.107304072953262 -19.107304072953262 -19.107304072953262
-19.107304072953262 -19.107304072953262 -19.107304072953262 -19.107304072953262 -19.107304072953262 -19.107304072953262 -19.107304072953262 -19.107304072953262
-19.107304072953262 -19.107304072953262 -19.107304072953262 -19.107304072953262 -19.107304072953262 -19.107304072953262 -19.107304072953262 -19.107304072953262
-19.107304072953262 -19.107304072953262 -19.107304072953262 -19.107304072953262 -19.107304072953262 -19.107304072953262 -1.625979667220031 -15.717879293916578
00000000: 1410 f3dc 25dc f8bf 6da9 3eae 8c5c 03c0
00000010: 0625 1361 900a d7bf 9b9e f623 7334 33c0
00000020: 9b9e f623 7334 33c0 9b9e f623 7334 33c0
00000030: 76a4 e810 8de9 18c0 2983 5fef 8eee 2bc0
00000040: 9b9e f623 7334 33c0 9b9e f623 7334 33c0
00000050: 9b9e f623 7334 33c0 9b9e f623 7334 33c0
00000060: 9b9e f623 7334 33c0 9b9e f623 7334 33c0
00000070: 9b9e f623 7334 33c0 9b9e f623 7334 33c0
00000080: 9b9e f623 7334 33c0 9b9e f623 7334 33c0
00000090: 9b9e f623 7334 33c0 9b9e f623 7334 33c0
000000a0: 9b9e f623 7334 33c0 9b9e f623 7334 33c0
000000b0: 9b9e f623 7334 33c0 9b9e f623 7334 33c0
000000c0: 9b9e f623 7334 33c0 9b9e f623 7334 33c0
000000d0: 9b9e f623 7334 33c0 9b9e f623 7334 33c0
000000e0: 9b9e f623 7334 33c0 9b9e f623 7334 33c0
000000f0: 9b9e f623 7334 33c0 9b9e f623 7334 33c0
00000100: 9b9e f623 7334 33c0 9b9e f623 7334 33c0
00000110: 9b9e f623 7334 33c0 2b12 fe11 3be2 28c0
00000120: 9b9e f623 7334 33c0 9b9e f623 7334 33c0
00000130: 9b9e f623 7334 33c0 9b9e f623 7334 33c0
00000140: 9b9e f623 7334 33c0 9b9e f623 7334 33c0
00000150: 9b9e f623 7334 33c0 9b9e f623 7334 33c0
00000160: 9b9e f623 7334 33c0 9b9e f623 7334 33c0
00000170: 9b9e f623 7334 33c0 9b9e f623 7334 33c0
00000180: 9b9e f623 7334 33c0 9b9e f623 7334 33c0
00000190: 9b9e f623 7334 33c0 9b9e f623 7334 33c0
000001a0: 9b9e f623 7334 33c0 9b9e f623 7334 33c0
000001b0: 9b9e f623 7334 33c0 9b9e f623 7334 33c0
000001c0: 9b9e f623 7334 33c0 9b9e f623 7334 33c0
000001d0: 9b9e f623 7334 33c0 9b9e f623 7334 33c0
000001e0: 9b9e f623 7334 33c0 9b9e f623 7334 33c0
000001f0: 9b9e f623 7334 33c0 9b9e f623 7334 33c0
00000200: 9b9e f623 7334 33c0 9b9e f623 7334 33c0
00000210: 9b9e f623 7334 33c0 9b9e f623 7334 33c0
00000220: 9b9e f623 7334 33c0 9b9e f623 7334 33c0
00000230: 9b9e f623 7334 33c0 9b9e f623 7334 33c0
00000240: 9b9e f623 7334 33c0 9b9e f623 7334 33c0
00000250: 9b9e f623 7334 33c0 9b9e f623 7334 33c0
00000260: 9b9e f623 7334 33c0 9b9e f623 7334 33c0
00000270: 9b9e f623 7334 33c0 9b9e f623 7334 33c0
00000280: 9b9e f623 7334 33c0 9b9e f623 7334 33c0
00000290: 9b9e f623 7334 33c0 9b9e f623 7334 33c0
000002a0: 9b9e f623 7334 33c0 9b9e f623 7334 33c0
000002b0: 9b9e f623 7334 33c0 9b9e f623 7334 33c0
000002c0: 9b9e f623 7334 33c0 9b9e f623 7334 33c0
000002d0: 9b9e f623 7334 33c0 9b9e f623 7334 33c0
000002e0: 9b9e f623 7334 33c0 9b9e f623 7334 33c0
000002f0: 9b9e f623 7334 33c0 9b9e f623 7334 33c0
00000300: 9b9e f623 7334 33c0 9b9e f623 7334 33c0
00000310: 9b9e f623 7334 33c0 9b9e f623 7334 33c0
00000320: 9b9e f623 7334 33c0 9b9e f623 7334 33c0
00000330: 9b9e f623 7334 33c0 9b9e f623 7334 33c0
00000340: 9b9e f623 7334 33c0 9b9e f623 7334 33c0
00000350: 9b9e f623 7334 33c0 9b9e f623 7334 33c0
00000360: 9b9e f623 7334 33c0 9b9e f623 7334 33c0
00000370: 9b9e f623 7334 33c0 9b9e f623 7334 33c0
00000380: 9b9e f623 7334 33c0 9b9e f623 7334 33c0
00000390: 9b9e f623 7334 33c0 9b9e f623 7334 33c0
000003a0: 9b9e f623 7334 33c0 9b9e f623 7334 33c0
000003b0: 9b9e f623 7334 33c0 9b9e f623 7334 33c0
000003c0: 9b9e f623 7334 33c0 9b9e f623 7334 33c0
000003d0: 9b9e f623 7334 33c0 9b9e f623 7334 33c0
000003e0: 9b9e f623 7334 33c0 9b9e f623 7334 33c0
000003f0: 9b9e f623 7334 33c0 6634 2307 1c52 e0bf
00000400: d60f 9c47 781b 33c0 354c 5422 c860 1ec0
00000410: 7192 6f57 d78d fabf b215 b450 c513 f9bf
00000420: d60f 9c47 781b 33c0 d60f 9c47 781b 33c0
00000430: d60f 9c47 781b 33c0 d60f 9c47 781b 33c0
00000440: a5fb c357 2799 21c0 7232 db02 cdb9 23c0
00000450: d60f 9c47 781b 33c0 d60f 9c47 781b 33c0
00000460: d60f 9c47 781b 33c0 d60f 9c47 781b 33c0
00000470: d60f 9c47 781b 33c0 d60f 9c47 781b 33c0
00000480: d60f 9c47 781b 33c0 d60f 9c47 781b 33c0
00000490: d60f 9c47 781b 33c0 d60f 9c47 781b 33c0
000004a0: d60f 9c47 781b 33c0 d60f 9c47 781b 33c0
000004b0: d60f 9c47 781b 33c0 d60f 9c47 781b 33c0
000004c0: d60f 9c47 781b 33c0 d60f 9c47 781b 33c0
000004d0: d60f 9c47 781b 33c0 d60f 9c47 781b 33c0
000004e0: d60f 9c47 781b 33c0 d60f 9c47 781b 33c0
000004f0: d60f 9c47 781b 33c0 d60f 9c47 781b 33c0
00000500: d60f 9c47 781b 33c0 d60f 9c47 781b 33c0
00000510: d60f 9c47 781b 33c0 d60f 9c47 781b 33c0
00000520: d60f 9c47 781b 33c0 d60f 9c47 781b 33c0
00000530: d60f 9c47 781b 33c0 d60f 9c47 781b 33c0
00000540: d60f 9c47 781b 33c0 d60f 9c47 781b 33c0
00000550: d60f 9c47 781b 33c0 d60f 9c47 781b 33c0
00000560: d60f 9c47 781b 33c0 d60f 9c47 781b 33c0
00000570: d60f 9c47 781b 33c0 d60f 9c47 781b 33c0
00000580: d60f 9c47 781b 33c0 d60f 9c47 781b 33c0
00000590: d60f 9c47 781b 33c0 d60f 9c47 781b 33c0
000005a0: d60f 9c47 781b 33c0 d60f 9c47 781b 33c0
000005b0: d60f 9c47 781b 33c0 d60f 9c47 781b 33c0
000005c0: d60f 9c47 781b 33c0 d60f 9c47 781b 33c0
000005d0: d60f 9c47 781b 33c0 d60f 9c47 781b 33c0
000005e0: d60f 9c47 781b 33c0 d60f 9c47 781b 33c0
000005f0: d60f 9c47 781b 33c0 d60f 9c47 781b 33c0
00000600: d60f 9c47 781b 33c0 d60f 9c47 781b 33c0
00000610: d60f 9c47 781b 33c0 d60f 9c47 781b 33c0
00000620: d60f 9c47 781b 33c0 d60f 9c47 781b 33c0
00000630: d60f 9c47 781b 33c0 d60f 9c47 781b 33c0
00000640: d60f 9c47 781b 33c0 d60f 9c47 781b 33c0
00000650: d60f 9c47 781b 33c0 d60f 9c47 781b 33c0
00000660: d60f 9c47 781b 33c0 d60f 9c47 781b 33c0
00000670: d60f 9c47 781b 33c0 d60f 9c47 781b 33c0
00000680: d60f 9c47 781b 33c0 d60f 9c47 781b 33c0
00000690: d60f 9c47 781b 33c0 d60f 9c47 781b 33c0
000006a0: d60f 9c47 781b 33c0 d60f 9c47 781b 33c0
000006b0: d60f 9c47 781b 33c0 d60f 9c47 781b 33c0
000006c0: d60f 9c47 781b 33c0 d60f 9c47 781b 33c0
000006d0: d60f 9c47 781b 33c0 d60f 9c47 781b 33c0
000006e0: d60f 9c47 781b 33c0 d60f 9c47 781b 33c0
000006f0: d60f 9c47 781b 33c0 d60f 9c47 781b 33c0
00000700: d60f 9c47 781b 33c0 d60f 9c47 781b 33c0
00000710: d60f 9c47 781b 33c0 d60f 9c47 781b 33c0
00000720: d60f 9c47 781b 33c0 d60f 9c47 781b 33c0
00000730: d60f 9c47 781b 33c0 d60f 9c47 781b 33c0
00000740: d60f 9c47 781b 33c0 d60f 9c47 781b 33c0
00000750: d60f 9c47 781b 33c0 d60f 9c47 781b 33c0
00000760: d60f 9c47 781b 33c0 d60f 9c47 781b 33c0
00000770: d60f 9c47 781b 33c0 d60f 9c47 781b 33c0
00000780: d60f 9c47 781b 33c0 d60f 9c47 781b 33c0
00000790: d60f 9c47 781b 33c0 d60f 9c47 781b 33c0
000007a0: d60f 9c47 781b 33c0 d60f 9c47 781b 33c0
000007b0: d60f 9c47 781b 33c0 d60f 9c47 781b 33c0
000007c0: d60f 9c47 781b 33c0 d60f 9c47 781b 33c0
000007d0: d60f 9c47 781b 33c0 d60f 9c47 781b 33c0
000007e0: d60f 9c47 781b 33c0 d60f 9c47 781b 33c0
000007f0: 67bc 6a41 0304 fabf ceb1 f3df 8d6f 2fc0
