labyrinth/data/3arhmm_s_params.npz (npz, 422468 bytes, 7 tensors)

arr_0 f8 [3]
00000000: 4ce5 dc01 bf59 fdbf 057b c720 217c f2bf
00000010: bc5d 6dfd 6899 e4bf
-1.8344106743591793 -1.155305030864555 -0.6437268209219194

arr_1 f8 [3, 3]
00000000: 0fa6 c1da 3d14 ecbf 73bf c186 6ac8 12c0
00000010: 0a53 15ae ffaa 14c0 d0e3 b8bd 4d80 0dc0
00000020: 2ce5 f3a5 d1fd eabf a167 85cc c999 0ac0
00000030: c1d1 85ab e731 16c0 db34 f0ad 9f7e 0dc0
00000040: 3690 6dc4 61b1 dc3f
-0.8774709007822724 -4.695718865943365 -5.166990966846024 -3.6876482793854635 -0.8434837571395852 -3.325091932126228 -5.548735313456235 -3.6868280018739887
0.4483265321962365

arr_2 f8 [127, 32]
00000000: 775a eb3d 1167 e63f 17e3 5771 a93e c8bf
00000010: 7f73 028b 53a7 d83f f8b5 7312 fbfb dbbf
00000020: d6aa 9b91 2c7f e83f 50b1 553f 0168 d03f
00000030: 87d9 930f f5e8 b3bf c3ca b48a 740f d0bf
00000040: 7519 3ae7 9a90 c6bf e884 a98e 0ca4 d13f
00000050: e858 33c9 1e42 df3f 6cea c280 91a7 a93f
00000060: 0cbc 7696 ad15 d03f cad1 bb21 e5ee dd3f
00000070: d87e ce95 6649 df3f 8d4e 8671 2f41 c1bf
00000080: e4ff 1079 bcf4 e13f 4869 4904 ea49 adbf
00000090: 872e 36b0 de5d c73f 70e0 774a 055c c43f
000000a0: e543 3b26 ce08 c0bf e488 2d90 8917 e43f
000000b0: bf92 1b28 508f dfbf a86c f0d0 e4aa fabf
000000c0: d1e3 c7cd 25df c63f c64b 04bd 0cf5 e73f
000000d0: 7917 da14 9fe0 ecbf 1589 8c39 06b9 683f
000000e0: 3158 cfef c80c bb3f 91f2 c879 a1b5 ee3f
000000f0: d01d 5de7 22c7 eabf 8d16 29c1 d480 ccbf
00000100: 1d45 9081 07b9 c2bf c3c6 1346 b85b d7bf
00000110: 0168 d212 4728 ccbf 9c40 fcfa 2852 d7bf
00000120: 50c0 debe 167d c23f ba51 41fc febe a73f
00000130: 4902 5ddc 6294 b7bf 604f d4dc 763f b5bf
00000140: 25cc 697c 8224 e1bf 1a5b 80b4 3714 cf3f
00000150: 6bb4 3d91 10e7 8e3f b16e fd0f 4fab bfbf
00000160: 2fae 3e6b b10a 893f caa2 1129 eb80 d03f
00000170: c978 d424 f865 c63f 8a2f 5c46 ef7c c5bf
00000180: af8d 4dcd 3bb8 d73f 251f 9b04 8f9d c83f
00000190: d377 d98b 150c b33f 8480 0ddc 3a4e b33f
000001a0: 6a52 6320 ce80 953f 80cc 7fa3 97e5 d63f
000001b0: a4f8 3664 3f7a d2bf 733e 704b 7a4f eabf
000001c0: 0a72 178e 3b88 8cbf 22b6 5a05 ba4e dc3f
000001d0: 3417 d5ad f9f0 c9bf e766 5765 9583 c7bf
000001e0: f4f3 6b9a ee40 ce3f 6ad4 159d 0e5c e03f
000001f0: e9d8 1334 1720 d2bf c40f 54de 98be b53f
00000200: 54fa 2f7d 506c d03f 9b49 d91f 31f4 d8bf
00000210: 08f8 bf97 2744 d3bf de1b c95f a523 e0bf
00000220: a69f e871 2f2d b03f 1e35 a3b5 f747 dbbf
00000230: 28c7 bea5 9fb7 983f 4d29 e3aa e83f de3f
00000240: 7ff9 619e 2c72 c73f 584f a81e 0fa7 d03f
00000250: 72d0 b080 229d c03f 054e 78b9 c0e9 d1bf
00000260: 48e2 eb25 7087 dabf 99e9 8d7d 3ac4 d03f
00000270: 0814 4966 712e bb3f 5413 bfec 8461 a43f
00000280: 9ecf 7c62 e7c9 983f 5fa3 4d09 835e c3bf
00000290: c223 d45d c9ee c33f 0f43 56a8 2807 d03f
000002a0: 7359 e2b8 0404 cf3f 5252 a349 a6a2 cc3f
000002b0: c51b 85a9 7aeb d5bf 30eb 396a 11a7 d03f
000002c0: 40b7 9f42 4c00 c93f 6218 79ab 4723 e13f
000002d0: e9ae 8b94 fbd9 b8bf b6a8 a017 fda7 d43f
000002e0: b2e4 0c69 b5d6 cabf 97b7 2331 45d8 ca3f
000002f0: 0364 f6cb 854a d4bf 0392 a362 da1f a3bf
00000300: 5d3a 6033 247b ccbf 5185 435f d4c6 c7bf
00000310: c693 e219 45f7 dabf 046d eeb6 f6e7 d6bf
00000320: 7856 3dd7 ecea aabf d641 1c79 4651 b6bf
00000330: b438 3d2b 1e75 bc3f e300 63f9 3330 a5bf
00000340: b09e 67b0 0ce8 c9bf 5a3a 3975 eb62 d13f
00000350: 1859 a9d1 b993 c43f eaca 21af 357e abbf
00000360: 5675 6770 d143 a3bf 5edc b18a f490 d53f
00000370: 2d0b 772c 7f18 b3bf 0d7d 389f cc9f be3f
00000380: f0d0 b6dd 1350 5f3f 33ab fa9c fd87 c3bf
00000390: 470d 12a3 ab22 9e3f b5e8 c2e2 81f8 a1bf
000003a0: 43d1 24f1 d67e bc3f 8c5f 7d5b 8c8a a7bf
000003b0: ca13 15b1 1916 aabf e57a 155d 6e71 b7bf
000003c0: 7f21 1f18 f6f5 c7bf 85aa 9ef2 4344 b43f
000003d0: 0c6e c176 b068 c53f 93c0 8702 0548 9a3f
000003e0: 64e9 ecc2 9c41 ab3f be74 20d1 86dd c83f
000003f0: d8b2 71fb f638 99bf 940a 5d52 c3d3 99bf
00000400: 8921 d2f1 13c5 d23f e3a6 ac6a c8b2 d7bf
00000410: f8a6 66f6 20fc d8bf eb73 4cf8 6ba8 ccbf
00000420: e02f 4509 58ce db3f a9d3 e62f ea82 b2bf
00000430: d720 b25b 095c c03f dd69 e618 1981 e83f
00000440: 800c 8d35 f4cd e03f 1b4d 6061 4596 b1bf
00000450: 7bb8 d1a3 b786 babf 503a 5f62 7a9b d5bf
00000460: 76cd 2dce 7d4d e6bf 5a7a fd5e 333b e63f
00000470: 4973 491a 373a cd3f 20bd 9a1d d02c bebf
00000480: f402 ba45 0f1d cbbf 97a8 a5f5 4efc adbf
00000490: 3f01 4eaf 36f8 c23f 4b68 c999 3bba e03f
000004a0: 4b7a 5df1 0877 c23f 21db 41e7 7955 d23f
000004b0: b3e4 d0fa aa57 dcbf 432b 6704 d733 cf3f
000004c0: 9228 4f30 cd88 b23f 835d f144 b938 d63f
000004d0: c66b b7c9 813f d7bf 10ed 4020 112a b13f
000004e0: 98db d387 a54c d7bf c124 d36b 18ea b43f
000004f0: 6903 25a5 f0c2 e2bf 4c5f a82d ad2b d3bf
00000500: 415a fa4b 2e56 d03f c6a0 fbf5 6beb c3bf
00000510: 579b baab 42ed b5bf 15af ac92 c247 cd3f
00000520: 9279 9d52 3268 713f 3914 50c6 a9b7 923f
00000530: 4899 ee27 a93b a73f bfc9 8c17 c066 c73f
00000540: d2b4 a297 4100 d33f af1c 3f3f 71be c03f
00000550: bf3f 1165 66f8 d53f 1c8f f3c3 a567 b7bf
00000560: 252a d365 6f40 a7bf 3a30 11d9 58cf b53f
00000570: b60f 381f 0819 9b3f fd06 b526 dea8 c0bf
00000580: f96e b268 1e81 c13f a5db c46e ab02 c0bf
00000590: b16d 863b 57e3 a0bf 2ec8 9151 86ca 913f
000005a0: afba d603 ad46 a9bf 2279 c760 555c 753f
000005b0: a52f 66c2 e77c d1bf 9ec0 840b cbc0 933f
000005c0: 0a61 37b5 42f0 d23f 821e 65af 60f5 d73f
000005d0: 9c0d ad28 43bd d6bf b8de bb26 15e4 b1bf
000005e0: dc4d 5eca 0162 c6bf 851a b3bb 4b50 b0bf
000005f0: 906a cd54 efb9 d2bf 007d a8b1 9700 cabf
00000600: 269e e643 7068 e43f 8261 bcea 05a6 d9bf
00000610: 7775 4176 76c3 af3f 0512 a9d8 b62f db3f
00000620: e5f8 95fc 9e7b ad3f 8b5d b207 6c0f dcbf
00000630: 9cfa cf7c 9edf c93f 7a53 eb65 b9b4 ed3f
00000640: 7e25 2b31 1b5e e73f 4d1e e110 e91a d5bf
00000650: 07bc 6d12 f727 c0bf 93b0 626e 8fe4 debf
00000660: 734d 09ac 2e70 efbf c3c5 8398 7c3d e13f
00000670: bf95 be0e 7351 c1bf f136 fcd2 08a1 adbf
00000680: 8519 faf6 c77a dbbf d4e3 58f3 82d4 b3bf
00000690: 03a1 ab7f afa3 d63f 4858 c33b edb7 e83f
000006a0: d1bf 70e6 2f4d 77bf 512d 3a9f 4ea0 d73f
000006b0: 79b0 c087 f252 d6bf 8f05 3bcd 1545 dc3f
000006c0: 9af8 7720 5b4e acbf 790a fdb9 7019 e33f
000006d0: 5946 eaff 78d3 d9bf 3edf 8b71 86ab d73f
000006e0: eb87 d5c5 642b e1bf 167b 1c83 cf2a cbbf
000006f0: 248b fded 1c21 f0bf aa5a f718 835a e3bf
00000700: 2011 d80d 9086 a33f 6cef 11e3 25b6 c93f
00000710: 2b5c 90a1 061c ce3f b8a7 849e 6949 d23f
00000720: 94a3 e8a6 0ccf c9bf d2da f1f2 9388 b03f
00000730: b603 d9bb 4628 c7bf 4986 660a 38ec bbbf
00000740: d7f8 c5f1 5682 923f 5bff 9e35 21db 93bf
00000750: 95ff 8489 5f09 c7bf 94c8 ef7f 85a9 d2bf
00000760: 6964 7f8e d3dc cebf 2b03 a22b f5d1 b4bf
00000770: 1dd8 d77d 7a7d b5bf f29d 9b29 6d77 a23f
00000780: e2e3 f235 7e46 d8bf 9ea7 5999 8b9e 96bf
00000790: 7c73 8ced ae5e bd3f 985d a55b 8f9b acbf
000007a0: 43e8 8785 f7b6 b73f 018f 1d3a 485e c6bf
000007b0: 2060 055e b14a cf3f 89fd fc06 0dbc cf3f
000007c0: 5f54 8d26 127a acbf 74ca 1b66 03aa cfbf
000007d0: e350 61e3 7246 cf3f a56a 771a 112d a5bf
000007e0: 3965 b97b b508 b8bf 381e b451 ae51 d5bf
000007f0: c865 a343 3444 bb3f ec1e f14d 9b5e c5bf
0.7000814637529648 -0.1894122889932752 0.38521278929857056 -0.43725468446686433 0.7655241817386365 0.25634795365364926 -0.07777339582739816 -0.2509433130791587
-0.17628799715403046 0.27563775951246194 0.4884106602525109 0.05010657021326356 0.25132312482577457 0.46770599645904254 0.48885502461960817 -0.13480179827876207
0.5611250271394934 -0.05720454504326483 0.18255218128284786 0.15905824791093748 -0.12526871554157917 0.6278732124303841 -0.4931221381832919 -1.6667221223531588
0.1786849264897499 0.7486633006795891 -0.9024196059478832 0.003017913968862316 0.10566383223280763 0.9596717241871194 -0.8368086355994198 -0.22268161231675201
-0.14627164675088347 -0.3649731335018311 -0.21997917574918804 -0.36438965330399653 0.14444240875082182 0.04637905911718883 -0.09210794334377072 -0.08299963847485747
-0.5357067518183426 0.24280449212593497 0.015089158470539673 -0.12370771541957983 0.012227426610329576 0.25786856661447344 0.17498685644472392 -0.16787520347167756
0.3706197266494326 0.19230830883884056 0.0744031397275358 0.07541244385129359 0.020999165274434274 0.3577632042572034 -0.2887114027652251 -0.8222018693358691
-0.013931718133727084 0.4423050930298321 -0.20266648281011046 -0.18370311210929133 0.2363565687191166 0.5112374370643356 -0.2832086571282973 0.08493953159273732
0.25661098695119233 -0.3899042902968632 -0.3010348302776724 -0.5043513174831522 0.06318947344754963 -0.4262675546459195 0.024137968531881132 0.47265068710534736
0.18317182286768838 0.26019647592442174 0.12979537280773773 -0.27989214050578 -0.4145164842916853 0.26197683583418435 0.10617741343692455 0.039806512736993455
0.02420770205135591 -0.15132177309285574 0.15572468835332925 0.25043693961292574 0.24231013324306225 0.2237136706886696 -0.3424975066631613 0.26019702314049464
0.1953215909301722 0.5355566357691368 -0.09707615257837755 0.32275321299915605 -0.2096773875180467 0.2097250451983512 -0.3170485011883672 -0.037352394619833994
-0.22250797756756216 -0.18575529719877662 -0.42134215858305557 -0.3579079424323057 -0.05257358672558338 -0.08717766243740441 0.11116207652705407 -0.04138338488837847
-0.20239409078134463 0.2716625828515241 0.1607582353341932 -0.05369727862207248 -0.03762678620453623 0.33697236580286993 -0.07459254108020437 0.11962584387992
0.001911181831798333 -0.15258760609625596 0.029429132297548646 -0.0350990857418351 0.11131041896152731 -0.04597891442125421 -0.050949862352844 -0.09157457134777365
-0.18719364335835206 0.07916664765677169 0.16725736425983972 0.025665357856212778 0.053234957499131125 0.19426045619267102 -0.024631365868503646 -0.025221874143663017
0.2932786809474455 -0.3702870408766172 -0.3903887182483312 -0.22388982414204803 0.434469231656065 -0.07231010121797844 0.12780873277029656 0.7657590376214177
0.5251408620755598 -0.06869920375202236 -0.10361812352650361 -0.33761462790144936 -0.6969594027454338 0.6947266440655071 0.22833908828297414 -0.11787129137768604
-0.2118243303739501 -0.058565585600107876 0.14819987830925105 0.5227334979674735 0.1442576578655966 0.28646705230441866 -0.4428508233427905 0.24376952853193687
0.07239992551254407 0.34721214039515064 -0.3632511587035733 0.06704813992921665 -0.3640531374398335 0.08169701225701244 -0.5862963891487257 -0.2995408006549851
0.25526006145210905 -0.15562200079808103 -0.08565155689812563 0.228752442949706 0.004249760220629633 0.01827874443917585 0.04537705051852697 0.18282319211864537
0.29689063842927255 0.13081183994493048 0.3432861315713999 -0.09142528566331659 -0.04541347616175909 0.08519511508456015 0.026462675958114544 -0.13015343561169593
0.13675289261015403 -0.12508147152558738 -0.03298447229027646 0.017374132851223738 -0.04936733886585409 0.005215009220107343 -0.27324861511510284 0.019290134981191025
0.29591434189707455 0.3743516648141637 -0.3553016564585165 -0.06988651462222151 -0.17486593610065782 -0.06372521717558229 -0.29259856492505154 -0.20314308333124842
0.6377488447369088 -0.40075824664520365 0.06203813737441071 0.4247872463058971 0.05758377869914159 -0.43844128371844054 0.20213681310993514 0.9283110609636502
0.7302375755618156 -0.3297674813115677 -0.12621963882290307 -0.4827002122863259 -0.9824441299519279 0.538755700950951 -0.13529813976235336 -0.05786922050002186
-0.4293689643749519 -0.07746141854376215 0.35374057262244224 0.7724519889113788 -0.005688845739356866 0.36915936994110604 -0.3488127065381899 0.44171662370725867
-0.05528530856462162 0.5968555100046863 -0.40353226653778546 0.36984406555665206 -0.5365470756480567 -0.21224397565762193 -1.008084230089204 -0.6047988402959465
0.03813600701326636 0.2008712157001996 0.23523028267729393 0.2857307479886191 -0.20163114690629114 0.06458401376026338 -0.18091663524867635 -0.1090731645004094
0.01807533121745383 -0.019390601060649142 -0.1799735471231513 -0.2915967702275648 -0.24111408670322312 -0.08132870021109954 -0.0839458996996147 0.03606740124615361
-0.37930255192219253 -0.022089177355531946 0.114726002688668 -0.055874328553439045 0.09263560304671707 -0.17475226247471912 0.24446694460743945 0.2479263576624187
-0.05561882706266696 -0.2473758934571212 0.24433742620988771 -0.04135945747448958 -0.09388288755998965 -0.33311040858140784 0.10650946284604068 -0.16694966607814565

arr_3 f8 [1, 32]
00000000: ff3a 6308 c977 a4bf 8da3 f310 7322 ae3f
00000010: d77f caf5 38c0 ab3f 16d8 91e6 a95d c33f
00000020: ca7d 7186 99d9 b6bf 0077 f5a5 f516 a43f
00000030: 5f75 183c 6b23 9ebf 95d0 84c7 c402 d1bf
00000040: 493d 56de 423e c0bf 8c16 b4e0 d093 afbf
00000050: e308 8582 bac2 993f 6425 1c01 5ad6 c03f
00000060: 33fb 6daf 2972 d03f 57ac 3df3 79c8 c1bf
00000070: 6f93 444e f2f8 8cbf af8a f5db 36aa 95bf
00000080: e1d2 8385 044f c13f 351c c8f6 126f 80bf
00000090: 52f6 c7b4 298a b9bf 33c6 2880 6a82 c2bf
000000a0: 4bf2 a459 ae17 93bf f878 180c 0e13 9abf
000000b0: 382e 33aa 1822 bd3f be9c 185b 2ed5 d3bf
000000c0: b08b af29 fd38 8ebf 0cbf db53 b207 d1bf
000000d0: a678 25c8 7f10 70bf f28b ec84 a1e5 b3bf
000000e0: 3e39 d93a 4e95 b83f 28c3 e759 74e7 a7bf
000000f0: 6b2b ecbc 9515 c93f 43e8 3e6b 1a7a 9c3f
-0.03997638919246604 0.058856578654576365 0.05420091629389361 0.151295888502944 -0.08925780803973918 0.039237667568825074 -0.029431987326565486 -0.2657939861703736
-0.12690006119053468 -0.061674621038077054 0.025156892982757816 0.13154149107166824 0.25696794635580317 -0.13893055321691136 -0.01414670277933691 -0.021157128501168184
0.1352239276817704 -0.008024356990985118 -0.0997644487724412 -0.14460498101975502 -0.018645023557143408 -0.02546331356835993 0.11380151896735746 -0.3098865403757819
-0.0147571352335428 -0.26609476270003607 -0.003921984813443446 -0.07772263999190424 0.09602822243434603 -0.04668773267247267 0.19597121929868008 0.027809536739120466

arr_4 f8 [32, 3]
00000000: e037 05bc 0ab3 e93f 92aa 37a5 983b b13f
00000010: 2f82 4fb5 95f0 d9bf da9b 1623 d923 e2bf
00000020: 848d d74b 7d5c ed3f b548 e85f 2c67 d6bf
00000030: 4446 c820 5ead d1bf 7fd8 a3ee a482 f83f
00000040: a5c6 1db1 41c6 f3bf 9099 06cf fff0 d9bf
00000050: 1d68 8b35 b491 d23f 1072 772d 69d4 db3f
00000060: b6dd 61cd af36 e63f ece0 01fc 9fb7 e1bf
00000070: a85e 5379 03d9 ebbf 9f68 6279 1acc d63f
00000080: 3b91 3169 96ca e23f ab8d f7da 38e1 f0bf
00000090: b960 108e 7671 b6bf e9ef 6b61 2f30 c5bf
000000a0: 8e5a a50d 9da0 ee3f e423 5b0e 5987 dc3f
000000b0: f003 66ea 3532 02c0 2a77 9250 bc55 f83f
000000c0: 7e37 a7d8 d803 bbbf 7499 68d9 6e83 f2bf
000000d0: 468c 7ecb 3b15 e63f 48cd 4d22 82a9 b73f
000000e0: 8728 0d25 ad1a acbf 2b1f 218c 5414 c53f
000000f0: 44fa decb 8be1 d53f ac4b 5e7a 8665 dd3f
00000100: 66eb 5711 3410 e2bf 821c ba62 598b dbbf
00000110: 3ae1 a718 6ee7 f03f d212 9921 41d1 f2bf
00000120: 9f85 a217 cc4a ddbf dbd1 f78e da41 f73f
00000130: cbdd cbbf 25c2 f9bf a211 b5e2 f66d ee3f
00000140: 8d30 f833 aa08 f4bf 6e38 008c 6bad d53f
00000150: 0552 9d14 f859 c4bf f05d 3fa3 43ed d9bf
00000160: c0f5 7d5e 8fe5 ccbf 555a e3ab 9f54 dcbf
00000170: 3b17 d880 f9d3 dbbf 7530 921f 78fb cb3f
00000180: e602 52e6 856c bcbf b861 4be4 1863 f43f
00000190: 8fcc 8a8f 7004 f7bf e047 9304 0a35 d0bf
000001a0: ff6d c8b9 e7ff c0bf 95ad 8d76 57ab c6bf
000001b0: f6a2 f146 356f e83f 86a9 9de7 79ec e2bf
000001c0: 8345 8048 4fd5 c93f f6bf 9658 0e99 ed3f
000001d0: b589 a536 f74c f4bf eaf4 c187 6433 d03f
000001e0: 3ab6 8c6f f3da a73f 820a 0f5f 2e9c d8bf
000001f0: 115a 4c37 d137 e13f e561 4961 8744 f43f
00000200: 03c8 e934 cc49 a73f d2fb 62a9 00bd ecbf
00000210: e9a9 cb63 7323 f7bf 7b67 8253 ffa5 d33f
00000220: 5983 01a5 f2c5 eb3f f7a8 a31f 4f1b f6bf
00000230: b5d5 7a10 c690 f7bf dcf3 8850 d0d8 0e40
00000240: 32d2 582c caf0 acbf bae0 50a3 ea5c d0bf
00000250: 630f 2b7c d790 b93f 48c0 5337 1110 f23f
00000260: 8c44 11df bb03 f2bf 68fe f560 0dee adbf
00000270: 5586 8dbf 6d51 f8bf 8497 dd5d ec5a 9fbf
00000280: 2f07 764e 8d6c f13f f358 8ab8 cb45 d43f
00000290: 3e73 c904 e92f e3bf c142 18fd 6ea7 df3f
000002a0: 20d8 fe0a dea8 7f3f 1f2c 2cae 5a01 e23f
000002b0: d45a 8b7b d9e5 f0bf 892f 0ae0 56ee ee3f
000002c0: bbba 3fea d2e5 be3f 8e7b 5c19 65c5 fcbf
000002d0: b5c0 d78f 8745 fabf 24d6 f49e 5a4a f63f
000002e0: e16a 7492 4963 d03f b3eb 5cfd 9a64 debf
000002f0: 63f9 ad64 d369 dd3f 6213 07c4 3d34 cfbf
0.8031057045243379 0.06731561692837776 -0.4053091307269225 -0.5668759999579109 0.9175402146615146 -0.35004720083191937 -0.27620652390860223 1.5318955728412502
-1.2359024923902464 -0.40533442704545397 0.29014306286774333 0.4348395294198619 0.6941756259320104 -0.5536651536959005 -0.8702409143106324 0.35620748380609685
0.5872299246371208 -1.0549858621023798 -0.08766880958899294 -0.16553299195209029 0.9571061388513316 0.4457609787173722 -2.274516898382437 1.5209315440510616
-0.10552745141396078 -1.1570881359599214 0.6900919889925567 0.09243024194238558 -0.054891024372936185 0.1646829303956506 0.34189124020841555 0.4593216128352491
-0.5644779528368928 -0.43038019791897153 1.0565014803997443 -1.176087504617659 -0.45769026096430737 1.453577574223451 -1.6098992816968003 0.9509233882786712
-1.252115443235229 0.3387097232051762 -0.15899563795632346 -0.40510645811215706 -0.2257556163203116 -0.4426650217623423 -0.4348129041903694 0.21861173192553776
-0.11103093026214203 1.27419366052173 -1.4385839087597423 -0.2532372517281356 -0.13280960627967883 -0.1771039322733087 0.7635752092001826 -0.5913667224643155
0.20182219543543675 0.9249335985423375 -1.2687904486307222 0.2531367612608181 0.04659233795824176 -0.38453254016000227 0.5380636291545803 1.2667306709537283
0.0454849066344565 -0.8980716045697312 -1.4461549661888233 0.3070066752931024 0.8679135535022439 -1.381667255011562 -1.4728451389067747 3.8558660785479173
-0.056524579919287624 -0.2556711764223213 0.09986635953378946 1.1289226685730842 -1.1259115899631835 -0.05845681961636445 -1.5198800547153912 -0.030620282391644618
1.089001947868791 0.31675999661946647 -0.5995984166616848 0.49459433285032267 0.007729403834607879 0.5626653100783904 -1.056115610690246 0.9665941596772295
0.12069433421104751 -1.798192118709014 -1.6419749850138434 1.3931528290971835 0.2560600214216447 -0.47489046804883656 0.4595840914916122 -0.24378177711164556

arr_5 f8 [1, 3]
00000000: 8636 cd2f 7278 a13f 1945 d924 7640 bbbf
00000010: 8654 f20c 3d84 b23f
0.03412205537334238 -0.1064523544275925 0.07233029905394703

arr_6 f8 [3, 1, 127, 127]
00000000: 6b5b eb76 e225 02c0 cd6a c5f9 2e0f 11c0
00000010: 6ea5 adda d748 c0bf 18c0 adec 0e5c 32c0
00000020: 18c0 adec 0e5c 32c0 18c0 adec 0e5c 32c0
00000030: 895b 2cee 23fb 18c0 5b58 9708 d65d 31c0
00000040: 18c0 adec 0e5c 32c0 18c0 adec 0e5c 32c0
00000050: 18c0 adec 0e5c 32c0 18c0 adec 0e5c 32c0
00000060: 18c0 adec 0e5c 32c0 18c0 adec 0e5c 32c0
00000070: 18c0 adec 0e5c 32c0 18c0 adec 0e5c 32c0
00000080: 18c0 adec 0e5c 32c0 18c0 adec 0e5c 32c0
00000090: 18c0 adec 0e5c 32c0 18c0 adec 0e5c 32c0
000000a0: 18c0 adec 0e5c 32c0 18c0 adec 0e5c 32c0
000000b0: 18c0 adec 0e5c 32c0 18c0 adec 0e5c 32c0
000000c0: 18c0 adec 0e5c 32c0 18c0 adec 0e5c 32c0
000000d0: 18c0 adec 0e5c 32c0 18c0 adec 0e5c 32c0
000000e0: 18c0 adec 0e5c 32c0 18c0 adec 0e5c 32c0
000000f0: 18c0 adec 0e5c 32c0 18c0 adec 0e5c 32c0
00000100: 18c0 adec 0e5c 32c0 18c0 adec 0e5c 32c0
00000110: 18c0 adec 0e5c 32c0 f168 97e7 ea50 31c0
00000120: 18c0 adec 0e5c 32c0 18c0 adec 0e5c 32c0
00000130: 18c0 adec 0e5c 32c0 18c0 adec 0e5c 32c0
00000140: 18c0 adec 0e5c 32c0 18c0 adec 0e5c 32c0
00000150: 18c0 adec 0e5c 32c0 18c0 adec 0e5c 32c0
00000160: 18c0 adec 0e5c 32c0 18c0 adec 0e5c 32c0
00000170: 18c0 adec 0e5c 32c0 18c0 adec 0e5c 32c0
00000180: 18c0 adec 0e5c 32c0 18c0 adec 0e5c 32c0
00000190: 18c0 adec 0e5c 32c0 18c0 adec 0e5c 32c0
000001a0: 18c0 adec 0e5c 32c0 18c0 adec 0e5c 32c0
000001b0: 18c0 adec 0e5c 32c0 18c0 adec 0e5c 32c0
000001c0: 18c0 adec 0e5c 32c0 18c0 adec 0e5c 32c0
000001d0: 18c0 adec 0e5c 32c0 18c0 adec 0e5c 32c0
000001e0: 18c0 adec 0e5c 32c0 18c0 adec 0e5c 32c0
000001f0: 18c0 adec 0e5c 32c0 18c0 adec 0e5c 32c0
00000200: 18c0 adec 0e5c 32c0 18c0 adec 0e5c 32c0
00000210: 18c0 adec 0e5c 32c0 18c0 adec 0e5c 32c0
00000220: 18c0 adec 0e5c 32c0 18c0 adec 0e5c 32c0
00000230: 18c0 adec 0e5c 32c0 18c0 adec 0e5c 32c0
00000240: 18c0 adec 0e5c 32c0 18c0 adec 0e5c 32c0
00000250: 18c0 adec 0e5c 32c0 18c0 adec 0e5c 32c0
00000260: 18c0 adec 0e5c 32c0 18c0 adec 0e5c 32c0
00000270: 18c0 adec 0e5c 32c0 18c0 adec 0e5c 32c0
00000280: 18c0 adec 0e5c 32c0 18c0 adec 0e5c 32c0
00000290: 18c0 adec 0e5c 32c0 18c0 adec 0e5c 32c0
000002a0: 18c0 adec 0e5c 32c0 18c0 adec 0e5c 32c0
000002b0: 18c0 adec 0e5c 32c0 18c0 adec 0e5c 32c0
000002c0: 18c0 adec 0e5c 32c0 18c0 adec 0e5c 32c0
000002d0: 18c0 adec 0e5c 32c0 18c0 adec 0e5c 32c0
000002e0: 18c0 adec 0e5c 32c0 18c0 adec 0e5c 32c0
000002f0: 18c0 adec 0e5c 32c0 18c0 adec 0e5c 32c0
00000300: 18c0 adec 0e5c 32c0 18c0 adec 0e5c 32c0
00000310: 18c0 adec 0e5c 32c0 18c0 adec 0e5c 32c0
00000320: 18c0 adec 0e5c 32c0 18c0 adec 0e5c 32c0
00000330: 18c0 adec 0e5c 32c0 18c0 adec 0e5c 32c0
00000340: 18c0 adec 0e5c 32c0 18c0 adec 0e5c 32c0
00000350: 18c0 adec 0e5c 32c0 18c0 adec 0e5c 32c0
00000360: 18c0 adec 0e5c 32c0 18c0 adec 0e5c 32c0
00000370: 18c0 adec 0e5c 32c0 18c0 adec 0e5c 32c0
00000380: 18c0 adec 0e5c 32c0 18c0 adec 0e5c 32c0
00000390: 18c0 adec 0e5c 32c0 18c0 adec 0e5c 32c0
000003a0: 18c0 adec 0e5c 32c0 18c0 adec 0e5c 32c0
000003b0: 18c0 adec 0e5c 32c0 18c0 adec 0e5c 32c0
000003c0: 18c0 adec 0e5c 32c0 18c0 adec 0e5c 32c0
000003d0: 18c0 adec 0e5c 32c0 18c0 adec 0e5c 32c0
000003e0: 18c0 adec 0e5c 32c0 18c0 adec 0e5c 32c0
000003f0: 18c0 adec 0e5c 32c0 4503 b1a8 a784 ddbf
00000400: 0556 25af 532c 32c0 8210 a54f ceb1 1ac0
00000410: 8134 d663 9fb1 19c0 0fe0 5b0a e60e f0bf
00000420: 0556 25af 532c 32c0 0556 25af 532c 32c0
00000430: 0556 25af 532c 32c0 0556 25af 532c 32c0
00000440: cf0c 9481 bcbe 24c0 9b2f b4e0 e34d 25c0
00000450: 0556 25af 532c 32c0 0556 25af 532c 32c0
00000460: 0556 25af 532c 32c0 0556 25af 532c 32c0
00000470: 0556 25af 532c 32c0 0556 25af 532c 32c0
00000480: 0556 25af 532c 32c0 0556 25af 532c 32c0
00000490: 0556 25af 532c 32c0 0556 25af 532c 32c0
000004a0: 0556 25af 532c 32c0 0556 25af 532c 32c0
000004b0: 0556 25af 532c 32c0 0556 25af 532c 32c0
000004c0: 0556 25af 532c 32c0 0556 25af 532c 32c0
000004d0: 0556 25af 532c 32c0 0556 25af 532c 32c0
000004e0: 0556 25af 532c 32c0 0556 25af 532c 32c0
000004f0: 0556 25af 532c 32c0 0556 25af 532c 32c0
00000500: 0556 25af 532c 32c0 0556 25af 532c 32c0
00000510: 0556 25af 532c 32c0 0556 25af 532c 32c0
00000520: 0556 25af 532c 32c0 0556 25af 532c 32c0
00000530: 0556 25af 532c 32c0 0556 25af 532c 32c0
00000540: 0556 25af 532c 32c0 0556 25af 532c 32c0
00000550: 0556 25af 532c 32c0 0556 25af 532c 32c0
00000560: 0556 25af 532c 32c0 0556 25af 532c 32c0
00000570: 0556 25af 532c 32c0 0556 25af 532c 32c0
00000580: 0556 25af 532c 32c0 0556 25af 532c 32c0
00000590: 0556 25af 532c 32c0 0556 25af 532c 32c0
000005a0: 0556 25af 532c 32c0 0556 25af 532c 32c0
000005b0: 0556 25af 532c 32c0 0556 25af 532c 32c0
000005c0: 0556 25af 532c 32c0 0556 25af 532c 32c0
000005d0: 0556 25af 532c 32c0 0556 25af 532c 32c0
000005e0: 0556 25af 532c 32c0 0556 25af 532c 32c0
000005f0: 0556 25af 532c 32c0 0556 25af 532c 32c0
00000600: 0556 25af 532c 32c0 0556 25af 532c 32c0
00000610: 0556 25af 532c 32c0 0556 25af 532c 32c0
00000620: 0556 25af 532c 32c0 0556 25af 532c 32c0
00000630: 0556 25af 532c 32c0 0556 25af 532c 32c0
00000640: 0556 25af 532c 32c0 0556 25af 532c 32c0
00000650: 0556 25af 532c 32c0 0556 25af 532c 32c0
00000660: 0556 25af 532c 32c0 0556 25af 532c 32c0
00000670: 0556 25af 532c 32c0 0556 25af 532c 32c0
00000680: 0556 25af 532c 32c0 0556 25af 532c 32c0
00000690: 0556 25af 532c 32c0 0556 25af 532c 32c0
000006a0: 0556 25af 532c 32c0 0556 25af 532c 32c0
000006b0: 0556 25af 532c 32c0 0556 25af 532c 32c0
000006c0: 0556 25af 532c 32c0 0556 25af 532c 32c0
000006d0: 0556 25af 532c 32c0 0556 25af 532c 32c0
000006e0: 0556 25af 532c 32c0 0556 25af 532c 32c0
000006f0: 0556 25af 532c 32c0 0556 25af 532c 32c0
00000700: 0556 25af 532c 32c0 0556 25af 532c 32c0
00000710: 0556 25af 532c 32c0 0556 25af 532c 32c0
00000720: 0556 25af 532c 32c0 0556 25af 532c 32c0
00000730: 0556 25af 532c 32c0 0556 25af 532c 32c0
00000740: 0556 25af 532c 32c0 0556 25af 532c 32c0
00000750: 0556 25af 532c 32c0 0556 25af 532c 32c0
00000760: 0556 25af 532c 32c0 0556 25af 532c 32c0
00000770: 0556 25af 532c 32c0 0556 25af 532c 32c0
00000780: 0556 25af 532c 32c0 0556 25af 532c 32c0
00000790: 0556 25af 532c 32c0 0556 25af 532c 32c0
000007a0: 0556 25af 532c 32c0 0556 25af 532c 32c0
000007b0: 0556 25af 532c 32c0 0556 25af 532c 32c0
000007c0: 0556 25af 532c 32c0 0556 25af 532c 32c0
000007d0: 0556 25af 532c 32c0 0556 25af 532c 32c0
000007e0: 0556 25af 532c 32c0 0556 25af 532c 32c0
000007f0: 2212 b98f 156e 16c0 e8f3 1f22 3ce9 32c0
-2.2684983530593192 -4.264827635454549 -0.12722299745227467 -18.35960273019745 -18.35960273019745 -18.35960273019745 -6.245254250962611 -17.36654714293432
-18.35960273019745 -18.35960273019745 -18.35960273019745 -18.35960273019745 -18.35960273019745 -18.35960273019745 -18.35960273019745 -18.35960273019745
-18.35960273019745 -18.35960273019745 -18.35960273019745 -18.35960273019745 -18.35960273019745 -18.35960273019745 -18.35960273019745 -18.35960273019745
-18.35960273019745 -18.35960273019745 -18.35960273019745 -18.35960273019745 -18.35960273019745 -18.35960273019745 -18.35960273019745 -18.35960273019745
-18.35960273019745 -18.35960273019745 -18.35960273019745 -17.31608436056644 -18.35960273019745 -18.35960273019745 -18.35960273019745 -18.35960273019745
-18.35960273019745 -18.35960273019745 -18.35960273019745 -18.35960273019745 -18.35960273019745 -18.35960273019745 -18.35960273019745 -18.35960273019745
-18.35960273019745 -18.35960273019745 -18.35960273019745 -18.35960273019745 -18.35960273019745 -18.35960273019745 -18.35960273019745 -18.35960273019745
-18.35960273019745 -18.35960273019745 -18.35960273019745 -18.35960273019745 -18.35960273019745 -18.35960273019745 -18.35960273019745 -18.35960273019745
-18.35960273019745 -18.35960273019745 -18.35960273019745 -18.35960273019745 -18.35960273019745 -18.35960273019745 -18.35960273019745 -18.35960273019745
-18.35960273019745 -18.35960273019745 -18.35960273019745 -18.35960273019745 -18.35960273019745 -18.35960273019745 -18.35960273019745 -18.35960273019745
-18.35960273019745 -18.35960273019745 -18.35960273019745 -18.35960273019745 -18.35960273019745 -18.35960273019745 -18.35960273019745 -18.35960273019745
-18.35960273019745 -18.35960273019745 -18.35960273019745 -18.35960273019745 -18.35960273019745 -18.35960273019745 -18.35960273019745 -18.35960273019745
-18.35960273019745 -18.35960273019745 -18.35960273019745 -18.35960273019745 -18.35960273019745 -18.35960273019745 -18.35960273019745 -18.35960273019745
-18.35960273019745 -18.35960273019745 -18.35960273019745 -18.35960273019745 -18.35960273019745 -18.35960273019745 -18.35960273019745 -18.35960273019745
-18.35960273019745 -18.35960273019745 -18.35960273019745 -18.35960273019745 -18.35960273019745 -18.35960273019745 -18.35960273019745 -18.35960273019745
-18.35960273019745 -18.35960273019745 -18.35960273019745 -18.35960273019745 -18.35960273019745 -18.35960273019745 -18.35960273019745 -0.4612216136338712
-18.17315191899799 -6.673638576936471 -6.42345958704857 -1.003637352432637 -18.17315191899799 -18.17315191899799 -18.17315191899799 -18.17315191899799
-10.372531937906755 -10.652129194255215 -18.17315191899799 -18.17315191899799 -18.17315191899799 -18.17315191899799 -18.17315191899799 -18.17315191899799
-18.17315191899799 -18.17315191899799 -18.17315191899799 -18.17315191899799 -18.17315191899799 -18.17315191899799 -18.17315191899799 -18.17315191899799
-18.17315191899799 -18.17315191899799 -18.17315191899799 -18.17315191899799 -18.17315191899799 -18.17315191899799 -18.17315191899799 -18.17315191899799
-18.17315191899799 -18.17315191899799 -18.17315191899799 -18.17315191899799 -18.17315191899799 -18.17315191899799 -18.17315191899799 -18.17315191899799
-18.17315191899799 -18.17315191899799 -18.17315191899799 -18.17315191899799 -18.17315191899799 -18.17315191899799 -18.17315191899799 -18.17315191899799
-18.17315191899799 -18.17315191899799 -18.17315191899799 -18.17315191899799 -18.17315191899799 -18.17315191899799 -18.17315191899799 -18.17315191899799
-18.17315191899799 -18.17315191899799 -18.17315191899799 -18.17315191899799 -18.17315191899799 -18.17315191899799 -18.17315191899799 -18.17315191899799
-18.17315191899799 -18.17315191899799 -18.17315191899799 -18.17315191899799 -18.17315191899799 -18.17315191899799 -18.17315191899799 -18.17315191899799
-18.17315191899799 -18.17315191899799 -18.17315191899799 -18.17315191899799 -18.17315191899799 -18.17315191899799 -18.17315191899799 -18.17315191899799
-18.17315191899799 -18.17315191899799 -18.17315191899799 -18.17315191899799 -18.17315191899799 -18.17315191899799 -18.17315191899799 -18.17315191899799
-18.17315191899799 -18.17315191899799 -18.17315191899799 -18.17315191899799 -18.17315191899799 -18.17315191899799 -18.17315191899799 -18.17315191899799
-18.17315191899799 -18.17315191899799 -18.17315191899799 -18.17315191899799 -18.17315191899799 -18.17315191899799 -18.17315191899799 -18.17315191899799
-18.17315191899799 -18.17315191899799 -18.17315191899799 -18.17315191899799 -18.17315191899799 -18.17315191899799 -18.17315191899799 -18.17315191899799
-18.17315191899799 -18.17315191899799 -18.17315191899799 -18.17315191899799 -18.17315191899799 -18.17315191899799 -18.17315191899799 -18.17315191899799
-18.17315191899799 -18.17315191899799 -18.17315191899799 -18.17315191899799 -18.17315191899799 -18.17315191899799 -5.607504125281169 -18.911073811341254
