labyrinth/data/4arhmm_s_params.npz (npz, 551828 bytes, 7 tensors)

arr_0 f8 [4]
00000000: 35ea e800 3dd7 f3bf 0c81 b320 3a78 f2bf
00000010: 318e c107 bddd fdbf b865 3311 1dc9 f6bf
-1.2400484118976582 -1.1543523099317694 -1.8666353514644352 -1.4240999862580406

arr_1 f8 [4, 4]
00000000: e3fe 0ea4 5dee a9bf 0111 1a30 5fd2 0dc0
00000010: c3cb bd41 4b1c 10c0 9460 ee59 ecfa 09c0
00000020: 6103 55f9 e735 15c0 c912 2052 e6b7 f1bf
00000030: 1a22 9c75 e586 18c0 c53b 6e6b a767 08c0
00000040: 2b80 86d3 fd4a 0fc0 aa76 0b35 eee6 0ac0
00000050: 8aae cbaa eafc e7bf c5c8 99f0 5b2c 12c0
00000060: 4e6c 0d6c f98f 11c0 f7d8 4475 1d2e 0ac0
00000070: 443a da92 3d66 08c0 9764 acfa e255 c33f
-0.05064671161335157 -3.7277206190066186 -4.027630831917977 -3.247521116816708 -5.302642722905916 -1.107397385408307 -6.131734693197837 -3.05061229639202
-3.911616947691092 -3.3627590316890137 -0.749623616776675 -4.54331947268128 -4.390599907225875 -3.272517124332008 -3.049922129902628 0.15105855216896621

arr_2 f8 [127, 32]
00000000: 96fa 73c2 0799 eb3f 3b79 d072 02b5 e33f
00000010: 83c2 63b0 6247 b53f c334 735e 4cc0 e03f
00000020: a72f 9fb1 e820 d53f 2933 8206 bc9e db3f
00000030: aee2 3ad8 d3e6 debf 0f18 ab85 7f4f b53f
00000040: 6c33 a792 2173 d03f d6a6 4921 ce2a e3bf
00000050: d846 1e32 37a3 dc3f 4737 a98c 14f6 d1bf
00000060: 802b 6e6d e9a0 e53f 6b86 71c4 d7bd dcbf
00000070: 585e 88ce eaf5 d53f 93ac 39f9 fd31 83bf
00000080: 386d b3e1 ad59 c23f e72d db8f 89d7 e7bf
00000090: ffe6 13b7 830c c23f b301 5ffc 55e6 d6bf
000000a0: 627b 65a9 28f3 e5bf 477c a687 743d bc3f
000000b0: e8bc 5c07 e21c dc3f 0585 d560 4bc7 b8bf
000000c0: 360a c2ef eeb3 cdbf dd2e ca91 868d cf3f
000000d0: e4e4 672e 0a48 ebbf 0529 9e53 27fa c93f
000000e0: e7f6 3a77 f860 debf e6b6 5e3b d91e e63f
000000f0: 7650 fe48 4509 e7bf 8394 90ce be92 d93f
00000100: 1689 15ab 77b5 d53f 72c7 c253 f876 c03f
00000110: 3db3 350d 7621 7c3f d679 0ece 568d e03f
00000120: 6aa5 49ab d613 a5bf 933e fbbe cbb4 bf3f
00000130: 9983 6791 d9b4 d9bf 16a0 3c44 983c 933f
00000140: 1bdd fccc 7e4c a3bf a8bd 3bde db1e e3bf
00000150: 4b43 9a14 4776 c33f 9f6a 3222 80c7 c8bf
00000160: 480f 9953 908f d03f 9def cfd5 0b01 d2bf
00000170: 998d 36eb 31e0 94bf ce50 7b37 301c cabf
00000180: a56f 2d62 cf73 c73f c3af 8fc0 d3cd d4bf
00000190: 830b ce85 8304 c0bf 71ba ce6b 8ca4 cbbf
000001a0: 4fbc 2b04 41aa dbbf d3a3 8d6a 1e1a c53f
000001b0: cf79 50fd 4834 b2bf 8925 6cff 34fa 5e3f
000001c0: d9ed cae7 eb64 cbbf 2b3f fc92 1ea6 cf3f
000001d0: 8b3c 67e7 50ca e0bf 4d3c d8b2 0e9b 9dbf
000001e0: edf9 8d5b af4d d3bf 7905 e70f 83f8 d13f
000001f0: 74fe ec57 6fa9 d0bf e8e8 0709 56ba d83f
00000200: e2d5 3f99 51ee ca3f e8fa fd8d e09d b53f
00000210: 4fc7 f89d 5357 c9bf b4db 1576 e049 cbbf
00000220: 4729 b945 cb86 d0bf 6c9c e678 3a9a abbf
00000230: 4ac6 7f23 c901 e2bf b3fe 515c f50c b93f
00000240: fbbb 050b 8899 cbbf 9dcc 199e b6eb c33f
00000250: e6f7 9787 34e8 b23f c715 1d74 d405 c8bf
00000260: 3656 e696 8327 ce3f b6d2 6685 7ef7 d6bf
00000270: 1ce9 f24f 6a40 d13f 882c 5be2 ea1b bc3f
00000280: c788 e28b aad0 d93f 6feb cd19 d99e d6bf
00000290: 3c11 fec3 00c8 c93f cb09 6276 cc4b b83f
000002a0: 2ea9 7fd0 cd4f a03f 94b7 ca04 d0e7 cc3f
000002b0: 53aa 444d 0c8d bb3f 8848 0b9e def3 883f
000002c0: 2697 44eb 508c afbf 06e2 b998 4d7e ba3f
000002d0: 35b0 8943 fcbb cebf 933e 04b0 ba06 d93f
000002e0: 48b8 7be4 e5a3 a6bf 7349 635d ed63 e03f
000002f0: 5e79 60bc 6dc5 e4bf 6604 e460 8893 d83f
00000300: cd0a 5c9c 9f48 c43f 4b2e b2e3 2989 92bf
00000310: 7741 fdf5 f305 d13f 724b 31ce 344d c63f
00000320: 00af 0b13 9063 bebf bc59 81e1 16e6 863f
00000330: cc12 db9d e71a 973f b1d3 d52b ffa8 b6bf
00000340: ac92 a9b3 d85b a93f 82b6 5030 af68 c2bf
00000350: 67b6 0666 679a c93f a5e4 dadd 4e0f bc3f
00000360: a323 452c 4a9d 923f c266 3b9c c570 c63f
00000370: 44a6 c12f c4a4 bcbf 4350 a53a 373b 8d3f
00000380: 19a3 02d9 9b17 c23f 8ca1 b1bb b603 d1bf
00000390: 2cea 7f4b b436 b9bf fed1 b4b1 d3b2 b1bf
000003a0: d275 d01c b7a0 b5bf f2d5 ae7c 7b9b 75bf
000003b0: aa62 493a 0a0b bc3f 63d4 09d8 078c cbbf
000003c0: f2b1 cbc6 555a d4bf 35be c0aa fcf1 c3bf
000003d0: 653c 5dae 986e b2bf 61d9 5b88 fbe1 b13f
000003e0: 2ef1 36d6 f719 bdbf 5b0e a5b7 5e31 aa3f
000003f0: 62fb 20ee 4973 acbf 6077 3ac5 0a28 b0bf
00000400: 6aa3 8193 2c18 e63f 48f2 1e97 858b d63f
00000410: 12c5 87ea 0de0 b1bf 7a90 cefd 30eb c43f
00000420: a239 ac1b d815 d73f f2d1 3fdb 7ed8 c63f
00000430: 96cd eeb6 5b70 c2bf 67ef 198b 3197 be3f
00000440: 9167 5050 12a1 de3f 6dfb 61f6 7a73 e9bf
00000450: 4ed7 c2f7 df24 d33f 67b4 45fd 8a85 a33f
00000460: caec 7520 c86d ca3f a98a b49c 783c c3bf
00000470: 24b8 48ad 071a 623f 9493 c1d5 55ee cdbf
00000480: f96f 3bc1 989c ad3f 5370 a966 0dba e2bf
00000490: dd7f 0d4a 67c7 c7bf af08 3925 e86b d6bf
000004a0: 818d 480b 232a dabf b9be b94d 897c bb3f
000004b0: 1bb3 8018 f840 ccbf fcaa 1861 aa59 cc3f
000004c0: 1fbd 4c85 0121 c8bf 6939 4873 2cab ab3f
000004d0: 6adf bfa1 8875 e1bf ffd0 b537 811b b6bf
000004e0: fb7b c15b f8d7 ddbf 307a 8083 5a27 dc3f
000004f0: 0531 d2e2 89e5 b13f 486e 1224 e274 cd3f
00000500: 9321 ae16 0127 d3bf 3f50 e8d2 53bc ccbf
00000510: b440 0770 ee03 dcbf 0a56 eee1 0906 a43f
00000520: 6b9e 9d23 d242 bcbf 4575 92fc 1fad 8fbf
00000530: 2d83 3f7b 7b20 b53f 437b 87c4 83dc a93f
00000540: 93c9 d5a5 cd58 ca3f 452f 9c23 30de d23f
00000550: eb40 dd13 6c41 d23f c6c9 09cb 7e25 a23f
00000560: 9e1b f205 70e0 c0bf 5706 d931 1714 843f
00000570: 7e26 d790 f6e7 cfbf cc58 0ab4 a977 aabf
00000580: 5844 7947 562d d3bf b75a 031b fe9b b93f
00000590: 6940 b047 9eaa c0bf 1973 aa6a ece7 b7bf
000005a0: 09d2 5cbd 0f79 c23f 0adb 6e93 2201 b5bf
000005b0: ffcd cfd7 591f d9bf 9637 85e7 dd91 d43f
000005c0: 55a0 7db1 352d d43f b2dc 5757 6ce3 c63f
000005d0: 1110 f3b0 a13d c43f 010f 5fb7 db21 c0bf
000005e0: acc4 8a3c 3376 a93f f6eb 6020 66df d2bf
000005f0: a242 91f4 d875 d63f 41f8 fd09 0863 cbbf
00000600: bc59 94a6 7c07 da3f 18ef 09ac ac46 cb3f
00000610: 2cb7 9f5b 8337 e9bf c6b5 fd07 09c1 d3bf
00000620: 20b2 84c7 12f3 d7bf 0b5f cb66 3bbd d4bf
00000630: 9e9a 5bb8 b9d2 d8bf 7078 cc18 b500 d03f
00000640: 7267 96a4 d45e d2bf 534f 3837 e4c8 d7bf
00000650: 9796 0627 bee2 bdbf 7db3 3c1b 6a32 bbbf
00000660: 5ac6 a14f 169c b4bf a556 0236 b3bf d5bf
00000670: 5e48 b576 0b05 c83f c53a 4396 9389 b63f
00000680: 779e d0dc 5fa1 c43f b708 56d1 250f d3bf
00000690: 86ea fba8 ee20 ad3f c3f4 8586 2ebd b8bf
000006a0: c66e 25da 2f9a bdbf a296 c04c 6778 bcbf
000006b0: 7613 e861 53f2 d43f 1acb 8cc2 f8d3 d13f
000006c0: 19b2 3ab3 a94b d0bf e8fe 7790 adba d73f
000006d0: 49a5 4487 7406 ccbf 2a2b e5cc cf75 d53f
000006e0: f643 e3f9 a4bb 7e3f d4ea abd4 44c2 d33f
000006f0: f0cd 578f e90b d2bf f3e8 e15b 9a33 c63f
00000700: bfde 2b4a 55f2 c83f a3a7 e4a7 9d86 ce3f
00000710: 2846 c123 48ec c93f 25bf 8347 c908 c23f
00000720: 7636 8489 a162 b1bf fc3f d4ec 5f41 bd3f
00000730: b912 e051 cd36 cbbf df4f 37d5 e152 cdbf
00000740: 43e1 5947 5f7d c2bf e09c d50b 13cc bb3f
00000750: cc77 e4dc 3b2d acbf 04c7 ab4b 80f2 d6bf
00000760: 1703 0f8a c6b4 75bf 8820 a530 101c b4bf
00000770: 793f 33e6 aa3d b33f 0476 e62d e0c3 603f
00000780: a4a9 668c 4583 adbf 52b3 f3c6 d642 c2bf
00000790: e9d2 d81d 347a c73f 1415 8eb6 9aec b9bf
000007a0: 46a9 fbd6 d83e 873f 6204 1a85 6e8a b3bf
000007b0: fdac 6bce 7b1b c23f bbf3 31fb 3a6b b8bf
000007c0: b810 1c7c 3b23 793f 43e6 6e54 2294 adbf
000007d0: 068c bbe4 f132 a83f 8fef 2b10 1443 bebf
000007e0: 80d5 a8fb 56b2 b8bf 395a 78f6 d8ce 973f
000007f0: 3e0e 9269 5304 cabf 60e6 db30 dbe5 b0bf
0.8624304578696236 0.6158458940952082 0.08312050634754979 0.5234739155509022 0.3301336035335631 0.4315633834419708 -0.48283859363759063 0.08324429524790865
0.25702704736322946 -0.5989752435827664 0.44746189016687543 -0.28064454780984643 0.6758925568877743 -0.44908708747798326 0.34313459557731596 -0.009372696083309406
0.14336179276038208 -0.7450607118311695 0.14100691260664885 -0.35780858655564457 -0.6859324749492368 0.11031273185516098 0.43926287383051354 -0.0967909919177324
-0.23205362994129225 0.2465065204490803 -0.852543917309188 0.20294658263112111 -0.47466861384951503 0.6912656936235322 -0.7198816705372468 0.3995816247209591
0.339200894426669 0.12863067712674653 0.006867848528924023 0.5172533058683324 -0.04116698113359514 0.12385247624046718 -0.4016632003750203 0.018785838284344512
-0.0376929879407106 -0.5975169506545415 0.15204704767213637 -0.19358827276012833 0.25876243747574224 -0.28131385688879523 -0.020386486035602756 -0.2039852400690791
0.18322174352476597 -0.32506269268810345 -0.12513774903717598 -0.21595912231483141 -0.432266477654541 0.16485958292767453 -0.071110307545019 0.0018907086902707224
-0.21401737993242767 0.24725706269281864 -0.5246967811198301 -0.028911809602558503 -0.30161651554945373 0.2807929663941518 -0.26034148775577326 0.38637305147098155
0.21039791090849663 0.0844402643833565 -0.19797749722925537 -0.21319204107177614 -0.25822717484392793 -0.05391104436721936 -0.5627179807035614 0.09785398010171313
-0.2156229070492087 0.15563090057148524 0.07385567007437963 -0.18767791432962452 0.23558087223197938 -0.35885584857468744 0.2695565968275717 0.10980098749421263
0.40336097393641207 -0.3534453155513608 0.2014161068910968 0.0949065960904029 0.031858855916498605 0.22582435831048697 0.10762097250396012 0.012183894346353932
-0.06161740180895796 0.10348973253884006 -0.24011185930010162 0.39103572072142717 -0.04421919263937518 0.5121981452924004 -0.6491001776919736 0.38400468313199665
0.15846629271262316 -0.01810136272665223 0.2659883405913414 0.17423114841457338 -0.11870670762044355 0.011181048161387312 0.022563570985556322 -0.08851618595310985
0.04952885811943494 -0.14381971224922913 0.20002453309773502 0.10960858265288438 0.018178137733488985 0.17531652573125284 -0.1118891350357894 0.014273101308084906
0.14134548279005157 -0.2658516724536859 -0.09849097102407062 -0.06913493240865162 -0.0844835706088454 -0.005275232669125428 0.10954345629705622 -0.21521089600324492
-0.31801361478463186 -0.1558223565821081 -0.07200006730021043 0.06985447005340496 -0.11367749194954932 0.0511579131293984 -0.05556708366247311 -0.06311099352975935
0.6904509430870409 0.35226573713206166 -0.06982504821623461 0.1634274710933175 0.3607082624665968 0.1784819193413934 -0.14405390198008367 0.11949453016307886
0.47858102648898987 -0.7953467189944213 0.29912566371364313 0.0381282266779202 0.2064752729892006 -0.15028293277381025 0.0022096776904368 -0.23383591592132957
0.05783536299506404 -0.5852114682306911 -0.18577281108718938 -0.350336109495525 -0.40882183172126224 0.10736902377697789 -0.22073270031378275 0.22148637524636416
-0.18850726135995274 0.05404032618763461 -0.5455973776979424 -0.08635718927490997 -0.46630677185561326 0.4399019512365241 0.06990873134254023 0.23012949715927022
-0.2992556306349112 -0.22449729726997877 -0.43773995342508987 0.039108570889919106 -0.11039460534595384 -0.015466928382290699 0.08252689131724074 0.050510518780120715
0.20583506200234733 0.2948112819437834 0.28524305286283774 0.03544231632703858 -0.1318492917091278 0.009803944786770531 -0.2492664534786861 -0.05169420550116541
-0.2996421525941222 0.1000365081739386 -0.13020685673155022 -0.09338262180467573 0.14431950327129098 -0.08204856967391208 -0.3925385100876326 0.3214030037823873
0.3152593835170639 0.1788154055099987 0.15813084735975783 -0.1260332723014628 0.049729920521153076 -0.2948851886937399 0.350942839465498 -0.21395969856161126
0.40670696513680205 0.21309431457836392 -0.7880265035180165 -0.30865693836571173 -0.3742110203191107 -0.32404980696217994 -0.38786166194624083 0.25004317685841837
-0.28703800271033864 -0.37163644211363084 -0.1167410702970194 -0.10623801388710592 -0.08050670093668924 -0.33982544206933546 0.18765395447059324 0.08803675097008597
0.1611747577855913 -0.2977995437905849 0.05689187825006052 -0.09663668426761078 -0.11563395572505461 -0.11121221183619892 0.3272903877371428 0.27856272696514994
-0.2546180963788927 0.37076892002367723 -0.21894699673547738 0.3353156567506398 0.007503170431122355 0.3087322308416962 -0.28197707174623954 0.17344979750107078
0.19489542123459633 0.23848314950856517 0.20252324815605616 0.14089313499379688 -0.0679112396939788 0.11427878887138826 -0.21260992524925884 -0.22909186278286506
-0.14445105537357436 0.10858267821241752 -0.055032606806193124 -0.35855109586474065 -0.005299354118449859 -0.0785532110941195 0.07515972252008209 0.0020465258123312253
-0.05764214838866913 -0.14266476358843733 0.1834168573128843 -0.10126654583844569 0.011350339947473597 -0.07633105039168833 0.14146373347407595 -0.09538620598500717
0.006137115824234644 -0.05777079849890445 0.0472636787142378 -0.11821103472533266 -0.09647124904662085 0.02324999813398618 -0.20325701384364153 -0.066007327488387

arr_3 f8 [1, 32]
00000000: ca53 7f64 dcb4 a5bf ae5b 51e1 1287 a1bf
00000010: fe43 c99e 1a97 4b3f 4c20 9698 068a a53f
00000020: e115 b78b bcbe 87bf 96dc cf6b 834f 93bf
00000030: 5bc6 87f7 f701 98bf de0c 2460 0863 aebf
00000040: bd9a 8e6c d094 a13f 1e6b 3c45 2115 60bf
00000050: ed08 3b9b a3c5 983f 57e2 559a 1139 9cbf
00000060: 26ad 85c3 284b 97bf 7b02 2fc7 84b7 8abf
00000070: 7b77 4e7e c60f a9bf d083 5bac f00d a6bf
00000080: c4f1 77d6 23a6 9abf e54f 6351 ac2e 833f
00000090: c00f f2a8 aef3 abbf fc92 4247 197a 4ebf
000000a0: 12b7 6ff3 cce1 aabf 035a 94ed b200 8abf
000000b0: 14c9 64f2 c4d6 c1bf fdbe 0013 a6cd 85bf
000000c0: dcbd e038 b8bc 8a3f bd29 06d0 9fe2 98bf
000000d0: feeb b952 240d 9e3f a9f3 1a44 6dfa b2bf
000000e0: 7641 9846 dc7d 8ebf 0593 ce6d 4b62 b1bf
000000f0: adf0 8355 737d 813f deec 8bb6 c9f2 abbf
-0.04239548422598423 -0.03423365593396653 0.0008419876081210418 0.04206867802264522 -0.011594269765633438 -0.018858006911582757 -0.023445009692244372 -0.05934930966943751
0.03433848691138539 -0.0019632005513704606 0.02419143328621314 -0.027561450047388494 -0.022747647222257993 -0.013045346573450125 -0.0489484814818146 -0.043075104751330806
-0.02602439877044717 0.00936636565567279 -0.05459352314304011 -0.0009300826482286635 -0.0525039717830237 -0.012696645617819696 -0.13936673961286117 -0.010646150069163246
0.013055266605163256 -0.024302002975255855 0.02934700732155803 -0.0741337100289018 -0.014888497261410488 -0.06790610724290154 0.008540059134695655 -0.05458669999458164

arr_4 f8 [32, 4]
00000000: cc84 1cc4 4dc8 f43f aa95 b00c 4116 ccbf
00000010: 6214 d563 37ef d83f 4a2e 7941 51f7 f3bf
00000020: 75ea fe89 bf48 e73f fc4b cd4c 1260 7cbf
00000030: f161 aa7a 0c04 bbbf 56aa 34e5 793a e3bf
00000040: 0502 a7fb dd87 f43f b421 1eef ed92 c0bf
00000050: 65cf 24d1 f67d e93f 881f 0a47 0c17 f6bf
00000060: b846 55ed 4643 e93f a925 7ba9 1b42 c6bf
00000070: 4b74 139f ba19 c83f c704 84f1 daf7 fcbf
00000080: 5886 ee7e e060 da3f 5b1d accd 0389 9a3f
00000090: f6e5 1472 5d6d ea3f de77 c502 3b74 e0bf
000000a0: 6d46 217f 9a04 e23f 0b9a 534b 7c4a babf
000000b0: 4643 b695 2c9d adbf 51ac ff96 dde7 e2bf
000000c0: 788d d7ac 6a32 bebf f540 c94b 6925 e1bf
000000d0: 543c f073 fe97 e23f 849f 3c0d efee cebf
000000e0: 75bc f40a db58 bb3f 09a2 f1b4 0b5d d9bf
000000f0: 8961 a8a0 2f89 933f ccd4 63bf 8579 e23f
00000100: ef5c 69f5 8f7c d23f 2a63 e3c4 71e9 e0bf
00000110: 215d 2b13 4266 ef3f 99b6 339d c4ae f6bf
00000120: 70b5 6ed0 e670 f5bf f25e f705 3e78 e13f
00000130: 3a61 1cb7 c53f e7bf 5f0e fff3 4ed0 f23f
00000140: 5cf2 9e31 9561 bb3f dd72 3cea e2e1 b0bf
00000150: 0c93 6a10 9ce1 df3f f06b 28ca 2bfd f2bf
00000160: 114a 3d98 f5af d7bf 13e0 e2af a066 d2bf
00000170: ef35 5ac0 3b15 abbf dac4 95b8 599f d4bf
00000180: 351e 03ef 5d0e d03f 9f83 6e23 1665 ce3f
00000190: 5f78 464d 1644 ccbf 819b d6c5 33c7 e7bf
000001a0: e7f1 917b ba1a e7bf c37e 93fc dfe7 cbbf
000001b0: bc6b 5603 8624 d93f d0bf a341 4723 e03f
000001c0: 511f f3ee 0df9 d73f dd8a df83 a3d5 d13f
000001d0: bab9 4d89 8bdd f3bf 6387 5de8 f7a5 e13f
000001e0: 51dd a6b6 f712 d4bf d97c 2588 444f c73f
000001f0: 0074 70d4 fbfe c9bf f5da bab8 4462 e73f
00000200: cf36 a230 0975 d53f 6edc 127d 1786 d33f
00000210: 8cb7 25b4 08ec eabf 33c6 70a3 a610 b03f
00000220: 6488 609a 57b7 e9bf f6d7 f8c9 e002 d43f
00000230: 780c 124f d9b6 d83f bbe8 58c8 9c0f f33f
00000240: 5682 9c5e 9a05 e53f 7d14 564f 1203 c2bf
00000250: 0d5a 3dc0 f56a e3bf fe67 ea65 e32b d03f
00000260: cfd2 f6bc e557 e7bf 3c57 17fe 0f06 c4bf
00000270: 573e e541 bb81 ddbf 4833 3576 46ed e43f
00000280: e559 9f24 cbfe f4bf 6c52 0897 5e14 c93f
00000290: c4e4 e70a 2169 bbbf cef2 856a a8c9 f33f
000002a0: 280b 618c 2217 e13f b758 6e57 224d a4bf
000002b0: 981a 4035 2478 c5bf 4698 d896 86e6 efbf
000002c0: ed83 11b2 f20e f33f db40 103a e521 e0bf
000002d0: 20d9 5073 3a34 f9bf 5065 a6f4 cdee db3f
000002e0: b447 2b4f d02b e9bf 3292 52d4 17d6 b3bf
000002f0: 04ab 510e b280 d73f 7a55 9ba7 7dce c53f
00000300: d385 fbd5 248b f5bf d2a9 cb60 618a d03f
00000310: a3e7 1851 e1c0 dc3f 7f69 20ea a2c2 d33f
00000320: efb7 a580 948b debf f253 9532 c937 a83f
00000330: e9dd 7caf 47f3 de3f 0b3e ea85 2a37 d13f
00000340: 6ed7 32ef 79e9 dfbf 5075 aec7 ccd2 5c3f
00000350: 810e 2524 50f3 cbbf 4e6a a658 3d9c e33f
00000360: 63ec 2f09 8896 b53f b334 1428 6f80 9d3f
00000370: 0561 aede dbaa ddbf 4369 46dd cf67 d33f
00000380: 2c60 0401 9cac e1bf 54ef 60ae ec96 ab3f
00000390: 901f 7434 6557 d5bf f1fa 31fc b3da f13f
000003a0: 96c6 1372 9966 f23f 56f9 ec14 56a1 ca3f
000003b0: 18f4 22a5 1353 debf 58b3 08cb 623c d1bf
000003c0: 27a2 9e4b c3b9 e8bf 0fb6 0e4a 8c65 d6bf
000003d0: 7603 0e14 9cfa fb3f 6f72 ff24 671b bc3f
000003e0: a61d 39e9 15ea 9d3f b498 f716 a5ee ca3f
000003f0: 340f 1bc2 8e64 d5bf 48cd dbd8 2a4f a7bf
1.298902288494264 -0.2194291412317118 0.3896006083417146 -1.2478802259019113 0.7276303954343591 -0.0069275584072157025 -0.10553052897228789 -0.6008882023500728
1.2831706838770753 -0.12948393035573036 0.7966264805640831 -1.3806269431097196 0.7894625316059409 -0.17389245772782871 0.18828518645651324 -1.8105115350920629
0.41216289897611125 0.02591329520057904 0.8258502224118149 -0.5141882948043948 0.5630619509704055 -0.10269905890491075 -0.05783976867235778 -0.590803904456502
-0.11795679778838586 -0.5358168106268112 0.5810539497778202 -0.24166668077782216 0.10682457940559849 -0.3963040606527391 0.019078010731477888 0.5773342836461324
0.28885268178915074 -0.528496632144287 0.9812326788332123 -1.4176679745391196 -1.3400638715641797 0.5459280125168944 -0.7265347076782185 1.1758565455537775
0.10695774518439677 -0.06594675272613011 0.49814511874346645 -1.186809339217458 -0.3701147066796305 -0.2875138967169743 -0.05289637301494198 -0.32222598100550004
0.250876887712795 0.23745991449416423 -0.2208278539009738 -0.7430666793851374 -0.7220127500036683 -0.21801376183338136 0.3928542168229645 0.5043064386390999
0.37457607588702496 0.27866447332614347 -1.2415881503508062 0.5515098131547628 -0.31365769230929624 0.18210655830168923 -0.2030939853001712 0.7307456596380165
0.33526830434207694 0.3050593110487573 -0.8413127439978196 0.06275407304999518 -0.803630639569985 0.312675664175344 0.38616020890930924 1.1913116289202168
0.6569339607122611 -0.14071873544540728 -0.6068066363030212 0.25267872765255095 -0.7294796648698937 -0.15643501192851683 -0.4610431808004924 0.6539642628427851
-1.3122054510655456 0.19593412756570971 -0.10707289234405254 1.2367328797401345 0.5340740911272848 -0.03965098683618023 -0.16772892570607634 -0.9968903490269063
1.191149421291125 -0.5041376241734058 -1.5752510551952312 0.43645047084426825 -0.7865983530302771 -0.07748555120139924 0.3672299518427027 0.17036410030292953
-1.346470676297362 0.258446068312563 0.44927246970802964 0.3087546621697114 -0.47726929248062694 0.04730061285469124 0.4835986341235797 0.2689920718921434
-0.498625262825377 0.0017592429928535332 -0.21836282505875107 0.6128222209402538 0.08432817673012631 0.028810250111793233 -0.46355339761932185 0.3032111798180674
-0.552320482241162 0.05388583782811787 -0.3334591877214672 1.1158943034531001 1.1500486808912789 0.20804859182130525 -0.4738206017171378 -0.26931066348588706
-0.7726761319109458 -0.34994799835371365 1.7486840041530889 0.10979313519733024 0.029213278159912946 0.2104078638214496 -0.3342625518382534 -0.04552587411117287

arr_5 f8 [1, 4]
00000000: 3927 000c 1cdb b4bf e5bf b300 69fb bd3f
00000010: 97bb 0f7d f479 89bf 586a 4694 39c4 97bf
-0.08146834652884828 0.11711746470587021 -0.012439642016003378 -0.023209476160994974

arr_6 f8 [4, 1, 127, 127]
00000000: 99b0 16fc 6aac 01c0 4de4 f160 eb22 18c0
00000010: c95d 11ad a74a bfbf aa67 1627 ba92 32c0
00000020: aa67 1627 ba92 32c0 aa67 1627 ba92 32c0
00000030: 7e3a a6ac 7f69 17c0 12ec 277d 91b0 2fc0
00000040: aa67 1627 ba92 32c0 aa67 1627 ba92 32c0
00000050: aa67 1627 ba92 32c0 aa67 1627 ba92 32c0
00000060: aa67 1627 ba92 32c0 aa67 1627 ba92 32c0
00000070: aa67 1627 ba92 32c0 aa67 1627 ba92 32c0
00000080: aa67 1627 ba92 32c0 aa67 1627 ba92 32c0
00000090: aa67 1627 ba92 32c0 aa67 1627 ba92 32c0
000000a0: aa67 1627 ba92 32c0 aa67 1627 ba92 32c0
000000b0: aa67 1627 ba92 32c0 aa67 1627 ba92 32c0
000000c0: aa67 1627 ba92 32c0 aa67 1627 ba92 32c0
000000d0: aa67 1627 ba92 32c0 aa67 1627 ba92 32c0
000000e0: aa67 1627 ba92 32c0 aa67 1627 ba92 32c0
000000f0: aa67 1627 ba92 32c0 aa67 1627 ba92 32c0
00000100: aa67 1627 ba92 32c0 aa67 1627 ba92 32c0
00000110: aa67 1627 ba92 32c0 9457 e10e ea99 31c0
00000120: aa67 1627 ba92 32c0 aa67 1627 ba92 32c0
00000130: aa67 1627 ba92 32c0 aa67 1627 ba92 32c0
00000140: aa67 1627 ba92 32c0 aa67 1627 ba92 32c0
00000150: aa67 1627 ba92 32c0 aa67 1627 ba92 32c0
00000160: aa67 1627 ba92 32c0 aa67 1627 ba92 32c0
00000170: aa67 1627 ba92 32c0 aa67 1627 ba92 32c0
00000180: aa67 1627 ba92 32c0 aa67 1627 ba92 32c0
00000190: aa67 1627 ba92 32c0 aa67 1627 ba92 32c0
000001a0: aa67 1627 ba92 32c0 aa67 1627 ba92 32c0
000001b0: aa67 1627 ba92 32c0 aa67 1627 ba92 32c0
000001c0: aa67 1627 ba92 32c0 aa67 1627 ba92 32c0
000001d0: aa67 1627 ba92 32c0 aa67 1627 ba92 32c0
000001e0: aa67 1627 ba92 32c0 aa67 1627 ba92 32c0
000001f0: aa67 1627 ba92 32c0 aa67 1627 ba92 32c0
00000200: aa67 1627 ba92 32c0 aa67 1627 ba92 32c0
00000210: aa67 1627 ba92 32c0 aa67 1627 ba92 32c0
00000220: aa67 1627 ba92 32c0 aa67 1627 ba92 32c0
00000230: aa67 1627 ba92 32c0 aa67 1627 ba92 32c0
00000240: aa67 1627 ba92 32c0 aa67 1627 ba92 32c0
00000250: aa67 1627 ba92 32c0 aa67 1627 ba92 32c0
00000260: aa67 1627 ba92 32c0 aa67 1627 ba92 32c0
00000270: aa67 1627 ba92 32c0 aa67 1627 ba92 32c0
00000280: aa67 1627 ba92 32c0 aa67 1627 ba92 32c0
00000290: aa67 1627 ba92 32c0 aa67 1627 ba92 32c0
000002a0: aa67 1627 ba92 32c0 aa67 1627 ba92 32c0
000002b0: aa67 1627 ba92 32c0 aa67 1627 ba92 32c0
000002c0: aa67 1627 ba92 32c0 aa67 1627 ba92 32c0
000002d0: aa67 1627 ba92 32c0 aa67 1627 ba92 32c0
000002e0: aa67 1627 ba92 32c0 aa67 1627 ba92 32c0
000002f0: aa67 1627 ba92 32c0 aa67 1627 ba92 32c0
00000300: aa67 1627 ba92 32c0 aa67 1627 ba92 32c0
00000310: aa67 1627 ba92 32c0 aa67 1627 ba92 32c0
00000320: aa67 1627 ba92 32c0 aa67 1627 ba92 32c0
00000330: aa67 1627 ba92 32c0 aa67 1627 ba92 32c0
00000340: aa67 1627 ba92 32c0 aa67 1627 ba92 32c0
00000350: aa67 1627 ba92 32c0 aa67 1627 ba92 32c0
00000360: aa67 1627 ba92 32c0 aa67 1627 ba92 32c0
00000370: aa67 1627 ba92 32c0 aa67 1627 ba92 32c0
00000380: aa67 1627 ba92 32c0 aa67 1627 ba92 32c0
00000390: aa67 1627 ba92 32c0 aa67 1627 ba92 32c0
000003a0: aa67 1627 ba92 32c0 aa67 1627 ba92 32c0
000003b0: aa67 1627 ba92 32c0 aa67 1627 ba92 32c0
000003c0: aa67 1627 ba92 32c0 aa67 1627 ba92 32c0
000003d0: aa67 1627 ba92 32c0 aa67 1627 ba92 32c0
000003e0: aa67 1627 ba92 32c0 aa67 1627 ba92 32c0
000003f0: aa67 1627 ba92 32c0 a3e9 ff8e ebf5 97bf
00000400: 9583 2058 97ec 31c0 d95b cffd 6de6 20c0
00000410: 5ff3 9686 c25b 14c0 e5d6 689e 7b5b 10c0
00000420: 9583 2058 97ec 31c0 9583 2058 97ec 31c0
00000430: 9583 2058 97ec 31c0 9583 2058 97ec 31c0
00000440: d67f 987c e0d0 2cc0 43b5 16b6 6163 2ec0
00000450: 9583 2058 97ec 31c0 9583 2058 97ec 31c0
00000460: 9583 2058 97ec 31c0 9583 2058 97ec 31c0
00000470: 9583 2058 97ec 31c0 9583 2058 97ec 31c0
00000480: 9583 2058 97ec 31c0 9583 2058 97ec 31c0
00000490: 9583 2058 97ec 31c0 9583 2058 97ec 31c0
000004a0: 9583 2058 97ec 31c0 9583 2058 97ec 31c0
000004b0: 9583 2058 97ec 31c0 9583 2058 97ec 31c0
000004c0: 9583 2058 97ec 31c0 9583 2058 97ec 31c0
000004d0: 9583 2058 97ec 31c0 9583 2058 97ec 31c0
000004e0: 9583 2058 97ec 31c0 9583 2058 97ec 31c0
000004f0: 9583 2058 97ec 31c0 9583 2058 97ec 31c0
00000500: 9583 2058 97ec 31c0 9583 2058 97ec 31c0
00000510: 9583 2058 97ec 31c0 9583 2058 97ec 31c0
00000520: 9583 2058 97ec 31c0 9583 2058 97ec 31c0
00000530: 9583 2058 97ec 31c0 9583 2058 97ec 31c0
00000540: 9583 2058 97ec 31c0 9583 2058 97ec 31c0
00000550: 9583 2058 97ec 31c0 9583 2058 97ec 31c0
00000560: 9583 2058 97ec 31c0 9583 2058 97ec 31c0
00000570: 9583 2058 97ec 31c0 9583 2058 97ec 31c0
00000580: 9583 2058 97ec 31c0 9583 2058 97ec 31c0
00000590: 9583 2058 97ec 31c0 9583 2058 97ec 31c0
000005a0: 9583 2058 97ec 31c0 9583 2058 97ec 31c0
000005b0: 9583 2058 97ec 31c0 9583 2058 97ec 31c0
000005c0: 9583 2058 97ec 31c0 9583 2058 97ec 31c0
000005d0: 9583 2058 97ec 31c0 9583 2058 97ec 31c0
000005e0: 9583 2058 97ec 31c0 9583 2058 97ec 31c0
000005f0: 9583 2058 97ec 31c0 9583 2058 97ec 31c0
00000600: 9583 2058 97ec 31c0 9583 2058 97ec 31c0
00000610: 9583 2058 97ec 31c0 9583 2058 97ec 31c0
00000620: 9583 2058 97ec 31c0 9583 2058 97ec 31c0
00000630: 9583 2058 97ec 31c0 9583 2058 97ec 31c0
00000640: 9583 2058 97ec 31c0 9583 2058 97ec 31c0
00000650: 9583 2058 97ec 31c0 9583 2058 97ec 31c0
00000660: 9583 2058 97ec 31c0 9583 2058 97ec 31c0
00000670: 9583 2058 97ec 31c0 9583 2058 97ec 31c0
00000680: 9583 2058 97ec 31c0 9583 2058 97ec 31c0
00000690: 9583 2058 97ec 31c0 9583 2058 97ec 31c0
000006a0: 9583 2058 97ec 31c0 9583 2058 97ec 31c0
000006b0: 9583 2058 97ec 31c0 9583 2058 97ec 31c0
000006c0: 9583 2058 97ec 31c0 9583 2058 97ec 31c0
000006d0: 9583 2058 97ec 31c0 9583 2058 97ec 31c0
000006e0: 9583 2058 97ec 31c0 9583 2058 97ec 31c0
000006f0: 9583 2058 97ec 31c0 9583 2058 97ec 31c0
00000700: 9583 2058 97ec 31c0 9583 2058 97ec 31c0
00000710: 9583 2058 97ec 31c0 9583 2058 97ec 31c0
00000720: 9583 2058 97ec 31c0 9583 2058 97ec 31c0
00000730: 9583 2058 97ec 31c0 9583 2058 97ec 31c0
00000740: 9583 2058 97ec 31c0 9583 2058 97ec 31c0
00000750: 9583 2058 97ec 31c0 9583 2058 97ec 31c0
00000760: 9583 2058 97ec 31c0 9583 2058 97ec 31c0
00000770: 9583 2058 97ec 31c0 9583 2058 97ec 31c0
00000780: 9583 2058 97ec 31c0 9583 2058 97ec 31c0
00000790: 9583 2058 97ec 31c0 9583 2058 97ec 31c0
000007a0: 9583 2058 97ec 31c0 9583 2058 97ec 31c0
000007b0: 9583 2058 97ec 31c0 9583 2058 97ec 31c0
000007c0: 9583 2058 97ec 31c0 9583 2058 97ec 31c0
000007d0: 9583 2058 97ec 31c0 9583 2058 97ec 31c0
000007e0: 9583 2058 97ec 31c0 9583 2058 97ec 31c0
000007f0: dfbb b92d 4165 13c0 fcad cd03 f077 32c0
-2.2091884321617496 -6.034101023448852 -0.12223289466179844 -18.573152964563327 -18.573152964563327 -18.573152964563327 -5.853026101728231 -15.84485999214488
-18.573152964563327 -18.573152964563327 -18.573152964563327 -18.573152964563327 -18.573152964563327 -18.573152964563327 -18.573152964563327 -18.573152964563327
-18.573152964563327 -18.573152964563327 -18.573152964563327 -18.573152964563327 -18.573152964563327 -18.573152964563327 -18.573152964563327 -18.573152964563327
-18.573152964563327 -18.573152964563327 -18.573152964563327 -18.573152964563327 -18.573152964563327 -18.573152964563327 -18.573152964563327 -18.573152964563327
-18.573152964563327 -18.573152964563327 -18.573152964563327 -17.6012276935722 -18.573152964563327 -18.573152964563327 -18.573152964563327 -18.573152964563327
-18.573152964563327 -18.573152964563327 -18.573152964563327 -18.573152964563327 -18.573152964563327 -18.573152964563327 -18.573152964563327 -18.573152964563327
-18.573152964563327 -18.573152964563327 -18.573152964563327 -18.573152964563327 -18.573152964563327 -18.573152964563327 -18.573152964563327 -18.573152964563327
-18.573152964563327 -18.573152964563327 -18.573152964563327 -18.573152964563327 -18.573152964563327 -18.573152964563327 -18.573152964563327 -18.573152964563327
-18.573152964563327 -18.573152964563327 -18.573152964563327 -18.573152964563327 -18.573152964563327 -18.573152964563327 -18.573152964563327 -18.573152964563327
-18.573152964563327 -18.573152964563327 -18.573152964563327 -18.573152964563327 -18.573152964563327 -18.573152964563327 -18.573152964563327 -18.573152964563327
-18.573152964563327 -18.573152964563327 -18.573152964563327 -18.573152964563327 -18.573152964563327 -18.573152964563327 -18.573152964563327 -18.573152964563327
-18.573152964563327 -18.573152964563327 -18.573152964563327 -18.573152964563327 -18.573152964563327 -18.573152964563327 -18.573152964563327 -18.573152964563327
-18.573152964563327 -18.573152964563327 -18.573152964563327 -18.573152964563327 -18.573152964563327 -18.573152964563327 -18.573152964563327 -18.573152964563327
-18.573152964563327 -18.573152964563327 -18.573152964563327 -18.573152964563327 -18.573152964563327 -18.573152964563327 -18.573152964563327 -18.573152964563327
-18.573152964563327 -18.573152964563327 -18.573152964563327 -18.573152964563327 -18.573152964563327 -18.573152964563327 -18.573152964563327 -18.573152964563327
-18.573152964563327 -18.573152964563327 -18.573152964563327 -18.573152964563327 -18.573152964563327 -18.573152964563327 -18.573152964563327 -0.023399048426634327
-17.92418432992743 -8.45005791813121 -5.0896092443116165 -4.089338755749599 -17.92418432992743 -17.92418432992743 -17.92418432992743 -17.92418432992743
-14.407962697616238 -15.194104852935771 -17.92418432992743 -17.92418432992743 -17.92418432992743 -17.92418432992743 -17.92418432992743 -17.92418432992743
-17.92418432992743 -17.92418432992743 -17.92418432992743 -17.92418432992743 -17.92418432992743 -17.92418432992743 -17.92418432992743 -17.92418432992743
-17.92418432992743 -17.92418432992743 -17.92418432992743 -17.92418432992743 -17.92418432992743 -17.92418432992743 -17.92418432992743 -17.92418432992743
-17.92418432992743 -17.92418432992743 -17.92418432992743 -17.92418432992743 -17.92418432992743 -17.92418432992743 -17.92418432992743 -17.92418432992743
-17.92418432992743 -17.92418432992743 -17.92418432992743 -17.92418432992743 -17.92418432992743 -17.92418432992743 -17.92418432992743 -17.92418432992743
-17.92418432992743 -17.92418432992743 -17.92418432992743 -17.92418432992743 -17.92418432992743 -17.92418432992743 -17.92418432992743 -17.92418432992743
-17.92418432992743 -17.92418432992743 -17.92418432992743 -17.92418432992743 -17.92418432992743 -17.92418432992743 -17.92418432992743 -17.92418432992743
-17.92418432992743 -17.92418432992743 -17.92418432992743 -17.92418432992743 -17.92418432992743 -17.92418432992743 -17.92418432992743 -17.92418432992743
-17.92418432992743 -17.92418432992743 -17.92418432992743 -17.92418432992743 -17.92418432992743 -17.92418432992743 -17.92418432992743 -17.92418432992743
-17.92418432992743 -17.92418432992743 -17.92418432992743 -17.92418432992743 -17.92418432992743 -17.92418432992743 -17.92418432992743 -17.92418432992743
-17.92418432992743 -17.92418432992743 -17.92418432992743 -17.92418432992743 -17.92418432992743 -17.92418432992743 -17.92418432992743 -17.92418432992743
-17.92418432992743 -17.92418432992743 -17.92418432992743 -17.92418432992743 -17.92418432992743 -17.92418432992743 -17.92418432992743 -17.92418432992743
-17.92418432992743 -17.92418432992743 -17.92418432992743 -17.92418432992743 -17.92418432992743 -17.92418432992743 -17.92418432992743 -17.92418432992743
-17.92418432992743 -17.92418432992743 -17.92418432992743 -17.92418432992743 -17.92418432992743 -17.92418432992743 -17.92418432992743 -17.92418432992743
-17.92418432992743 -17.92418432992743 -17.92418432992743 -17.92418432992743 -17.92418432992743 -17.92418432992743 -4.848881449185654 -18.468506086077454
