labyrinth/data/5arhmm_s_params.npz (npz, 681204 bytes, 7 tensors)

arr_0 f8 [5]
000000 ba 45 2c 1a 1b 48 07 c0 e7 39 4d 66 0e fe fe bf
       -2.910207943416677 -1.937025451293829
000010 bf 66 32 7a 78 87 00 c0 3e 6e 79 53 28 cb e9 bf
       -2.0661477610236427 -0.8060495024068997
000020 1a 16 33 e5 8e a5 f7 bf
       -1.477919478712812

arr_1 f8 [5, 5]
000000 09 94 ad 05 b7 06 b2 bf 8c 7b bb eb d1 21 0b c0
       -0.07041496170639062 -3.39151367345716
000010 e4 09 5c 2a 06 a6 0d c0 6a 55 5d 75 2d 48 13 c0
       -3.706066447194859 -4.820485910245546
000020 b4 a2 61 e3 99 ef 17 c0 bb bf a3 37 dc 8b 12 c0
       -5.983985474428369 -4.636582249993746
000030 dc 71 5a fd e5 76 d8 bf a3 c7 2b 42 3a 99 1a c0
       -0.38225698224576177 -6.649636300966367
000040 cc 62 db 17 38 2f 0d c0 0f 02 5c 8f ad 43 0c c0
       -3.648056208021762 -3.5330458831742884
000050 e3 17 26 4f 93 e7 0c c0 2c 22 53 d7 ce 54 04 c0
       -3.6130739387035518 -2.5414101431126905
000060 4d 87 6a 34 b9 30 d2 3f 0b 06 13 e5 a5 7b 16 c0
       0.28422384375345616 -5.620750026022061
000070 f6 bf 66 03 d4 31 0d c0 ae 7b 19 2d e8 e9 07 c0
       -3.649330164502312 -2.989212372150596
000080 73 57 88 c4 4f 96 16 c0 b1 a9 17 30 c6 4e 0c c0
       -5.646788664647704 -3.5384639508458453
000090 8e c9 d2 05 61 d2 bf 3f e3 20 f3 e9 93 c8 0a c0
       0.12430387870953138 -3.347938373310272
0000a0 2d a1 28 53 8a aa 08 c0 a3 54 8f 75 b2 4b 12 c0
       -3.0832716461919945 -4.573922955392081
0000b0 2d 5a 94 05 eb 9c 09 c0 83 7b 15 ac 92 6f 14 c0
       -3.2016201434992326 -5.108957947550951
0000c0 ec 82 c1 5c c2 47 d8 bf
       -0.379379835683763

arr_2 f8 [127, 32]
000000 0e f8 27 a5 a1 4f a9 3f a6 85 16 4b dd 7e d2 bf
       0.04943566456857705 -0.28899319012460933
000010 3c 72 c1 4a 40 ae d1 3f d1 98 bd bb 39 ad dc bf
       0.2762604455981863 -0.4480728467373299
000020 8c 1f 6f b0 04 d8 d5 bf c0 f6 c5 b4 47 f4 e6 3f
       -0.3413097117413535 0.717319348404736
000030 8a 8b 88 a7 fb 74 c6 bf 97 a1 cf b2 99 98 e9 3f
       -0.17544503860798627 0.7998779766467575
000040 3a c7 bd a4 fe eb df 3f d8 6c e1 c1 bc f1 89 3f
       0.4987789734651532 0.012668108622327187
000050 dd d5 09 13 2f 96 e0 3f 29 d6 94 1d 14 78 d3 bf
       0.5183329936832554 -0.30420401467140096
000060 70 90 49 0f fc 71 d7 bf 51 d4 4e 60 1d e6 d7 bf
       -0.36633206837564725 -0.37342008977004065
000070 05 5f 79 4e 37 64 e1 3f 13 f2 9d 51 13 9d e1 bf
       0.5434834034631143 -0.5504242509919685
000080 fb 9e 6c 9c 3a 9e c2 bf 0a be 5e 2b 58 1a db bf
       -0.14545376432328525 -0.42348293528900227
000090 ef 9c 69 7a 4f 71 e5 3f 8b 42 34 71 16 09 cc 3f
       0.6700818434591421 0.21902733352228085
0000a0 7f 78 45 90 64 e0 e2 3f 34 3c 62 24 12 6a e8 3f
       0.5898917024421876 0.762948103963828
0000b0 e0 8c 62 83 75 a4 e2 3f 0a c4 75 21 a7 2b 7f bf
       0.5825755659210721 -0.007609989980992724
0000c0 51 24 a9 af d9 f6 f7 3f 1b fb fd 52 ff a3 f5 bf
       1.4977661954638004 -1.3525384179953963
0000d0 08 0f 79 10 cf 3f d0 3f 11 2c db d2 94 2f da bf
       0.25389458283119426 -0.4091541346685413
0000e0 06 75 67 bb f9 d9 b8 bf fd c0 33 23 c7 da bc bf
       -0.09707604241653564 -0.11271328553607769
0000f0 4e 57 72 2c 89 38 fc bf 27 29 c1 ab d3 0b c7 bf
       -1.7638026939580018 -0.1800484264989077
000100 56 59 93 d7 93 3c be bf b3 f4 b1 03 39 ca d7 bf
       -0.11811183941913347 -0.37171769486287615
000110 a4 52 10 3e f0 8d e1 bf 9d cd a5 cb 3b d5 c4 bf
       -0.5485764705832321 -0.16275737231954404
000120 de 65 65 17 35 d7 d5 bf e6 fe 49 ec 64 cb d5 bf
       -0.3412602165677451 -0.34053919863798254
000130 b3 8e 0e 36 77 e8 85 3f 38 6e 69 51 36 05 dd 3f
       0.010697299325165366 0.4534431262052041
000140 eb 51 27 f3 bf 92 e3 bf 93 c1 eb c2 2b be c6 bf
       -0.6116637944310787 -0.17767855661032836
000150 98 bf 29 80 bb 91 e5 bf 09 ff 5a 3c e1 08 ba 3f
       -0.6740396025834228 0.10169799541017367
000160 14 c4 fa 50 f1 f6 d9 bf 43 80 78 5e 04 bd ce 3f
       -0.4056971827331506 0.2401433430941343
000170 88 eb d9 42 56 87 a0 3f 5e dc 31 97 68 f9 9f bf
       0.032282539043953895 -0.03122485564059862
000180 13 e3 67 51 2b 81 b1 bf 45 2c 32 13 c2 de da 3f
       -0.06837721574255466 0.41984607576950267
000190 29 8b 09 a4 e5 cb db bf b7 f2 e3 8a 83 29 a1 bf
       -0.4343198873449859 -0.03351985044898725
0001a0 75 90 93 8f 74 91 c5 3f 3c 27 65 3b ca 80 a3 3f
       0.16850144396369485 0.03809196448362548
0001b0 be 26 7c f0 34 42 a1 3f 52 3c 94 a5 04 a7 ca 3f
       0.03370824275596139 0.20822198948778464
0001c0 0c 72 3b 5a 41 0c c4 bf 71 51 9f 75 6d 75 d4 3f
       -0.15662400155896739 0.3196672104507093
0001d0 e4 7e 30 42 5f 87 d3 3f 3f f3 5a a5 c8 ef 9f 3f
       0.3051374575024808 0.031188140003666872
0001e0 c1 63 8c 73 65 4d c0 3f 96 61 ef 94 0e 16 cd 3f
       0.12736194746028498 0.2272356250021061
0001f0 97 a7 80 40 32 a1 cb bf 8a 7f 4f aa c1 21 b9 3f
       -0.21585682057894637 0.09817133338901676
000200 75 25 d5 f6 a2 3d d6 bf 8e e0 28 02 ef ab d6 bf
       -0.3475119982218396 -0.3542439957705107
000210 20 f6 55 ba 77 fa b7 3f 0f ac 9d 78 3e 0f dc bf
       0.09366558360303445 -0.438430421627971
000220 9c 6f d5 60 7c 72 e0 bf fb aa a6 80 48 e2 d3 3f
       -0.5139753237995026 0.3106862312658191
000230 65 eb 42 a3 55 67 cc bf 14 b2 69 d2 90 f8 d3 3f
       -0.22190351936100253 0.3120462469876497
000240 86 98 ee 7e 60 45 c6 bf 89 f0 aa 0f fd 8e cb 3f
       -0.1739922160897473 0.21530116333986296
000250 93 fb c4 1b 49 ef e3 bf 31 46 0a 64 6b 81 b7 3f
       -0.6229596655247057 0.09181853477846215
000260 e5 0b 28 52 37 93 e5 bf 7d 1d ba f2 46 94 da bf
       -0.6742207150094798 -0.4153001184826833
000270 b4 91 f1 f2 58 b0 e7 3f b9 cc bb 92 e7 1a eb bf
       0.7402767891876949 -0.8470342508211594
000280 19 6d 86 a2 15 da e1 3f 5d b5 bd 11 ca d0 cd 3f
       0.5578716444319155 0.2329342447878088
000290 d2 c3 09 b4 cc 88 b5 bf 0e ab b6 30 38 32 99 3f
       -0.08411864657843118 0.024605634663809765
0002a0 ee c5 60 2e af c6 ec 3f f5 c5 a0 e9 c4 00 d9 3f
       0.8992534547634798 0.39067194762455354
0002b0 b5 82 4b 50 23 9b d5 bf e5 23 07 19 91 4d e6 3f
       -0.3375938686495304 0.6969686020685201
0002c0 71 66 df 28 64 fb e0 3f 12 a5 c0 2e aa 87 da bf
       0.5306874082845764 -0.4145303207938734
0002d0 f1 0d bc 5e 40 99 d3 3f 58 36 0b dc 99 f9 d0 3f
       0.30622872592377265 0.265234436880609
0002e0 0a e3 ec 5e c3 ab e5 3f b1 c4 70 24 07 08 e9 3f
       0.6772171834955725 0.7822299682358304
0002f0 5e 0a ff 5f 91 66 f3 bf 1a 6b 7d 15 95 e2 c5 3f
       -1.212540984139785 0.17097724484741478
000300 54 40 56 6c e8 ba dc 3f fb 66 ab 7a 8a 82 ce bf
       0.44890795306946996 -0.23835879316066397
000310 e5 62 44 ed ba 51 b0 bf 7e 92 06 04 c8 19 cc bf
       -0.06374710362105025 -0.21953678318563513
000320 d8 c4 ec 39 6a cc db bf 9f 28 dc 7f 1a a9 bd bf
       -0.43435149819113184 -0.11586156484205155
000330 18 8a e3 c6 81 5c b4 3f d6 9d fa 7e b9 25 dd 3f
       0.07953654390033937 0.4554275264767659
000340 f5 98 7c 7c 66 46 c3 3f ea 68 87 f8 52 9d d5 bf
       0.15058594778492532 -0.3377273013153529
000350 05 60 10 dd 6f bc d6 3f bf 0b 4f ab 52 54 c0 3f
       0.35525127971914144 0.12757333149610692
000360 35 58 75 57 1c 09 b0 bf b9 14 03 90 73 fa d7 3f
       -0.06263901839460646 0.37466134132075585
000370 64 74 ba 4a a8 3e d4 bf 9e 36 02 66 89 10 ce 3f
       -0.31632430360497765 0.23487966042414582
000380 d7 48 02 45 cb bd ca bf 23 fc fb dd 44 87 d9 bf
       -0.20891705388618817 -0.39888116529613366
000390 7b 8f 46 bc 27 30 c4 bf 2c 84 33 ef db 85 bb 3f
       -0.15771958058496324 0.10751127805589594
0003a0 10 c4 aa 85 fe c0 c2 3f ad ac 80 90 c0 fd c3 3f
       0.14651471640311842 0.1561814027385017
0003b0 9d bb 21 6e a5 b5 b7 3f 4c 60 6b 01 5f 0a d6 bf
       0.0926154512287511 -0.3443830026494694
0003c0 a2 25 33 6c ee 64 d4 3f 1b 6d 84 78 3a b9 dc bf
       0.31866036001573594 -0.44880544442431053
0003d0 e1 0d 93 cb 09 32 a6 3f 3b 52 72 90 60 5b b1 bf
       0.043350511646646835 -0.06780055548217316
0003e0 4c d3 62 e3 f1 6b d8 bf 22 a0 81 08 f7 81 d4 bf
       -0.38158843236606255 -0.3204324324674436
0003f0 0e ef 28 04 3e dd de bf 32 1a 32 17 23 c4 74 3f
       -0.4822535553573609 0.005069863388718109
000400 51 d3 81 ff fc 3e bc 3f 30 28 3c df 55 ae b1 3f
       0.1103361247822481 0.0690663976676269
000410 48 63 32 ee 83 4f e4 bf 50 2f 0e 53 dc 88 b1 3f
       -0.6347064640313897 0.06849457767219502
000420 06 ee 23 34 f6 89 bd 3f 0a c9 ef f2 44 90 9f bf
       0.11538637898404866 -0.03082378132598599
000430 ed 8e 3c 7b 32 e8 c9 3f 08 cc 94 d5 0a 0c e4 3f
       0.2023985959759708 0.6264700099476395
000440 7a 2c f8 7d 3a d0 db bf da 23 7b d9 f7 8e be bf
       -0.4345842580957605 -0.11936902103037941
000450 4c 53 7c 4c bb 36 c2 bf 0b 77 2a fd d8 b9 9a bf
       -0.14229527697230038 -0.026099577381152133
000460 64 3e b9 a5 ef 05 c0 3f b4 38 75 32 c3 eb e2 3f
       0.1251811560818964 0.5912796006685057
000470 63 80 f2 89 1a 5e de bf c9 ed 28 3b 8d 5d bc 3f
       -0.4744936320439647 0.11080248541195838
000480 7d 31 7e 0b d3 e4 d1 bf ef fb 9c 4e b8 a1 c0 bf
       -0.27959133264882735 -0.1299353011945352
000490 bb 4d fd ad 47 56 d3 bf 0f 10 19 ae ca 7b b9 3f
       -0.3021411131969349 0.09954516172825854
0004a0 36 3e 45 1b ee 19 cf bf 74 32 22 88 e5 b0 ad bf
       -0.24297882396284515 -0.05799023901736158
0004b0 e8 9d a0 87 ab 21 bd bf b4 df 45 e5 c8 86 9c 3f
       -0.11379501401153613 0.02785791301127434
0004c0 4b 1e bc 2d 4c 16 d2 3f 78 f4 1b e4 27 e2 dc 3f
       0.2826109358433981 0.4513034560803315
0004d0 34 0a 92 fb 2a 42 b0 3f a6 3e 3b e9 a6 0b 94 3f
       0.0635096420465196 0.019575698838535736
0004e0 24 f6 39 cf a8 61 c0 bf 7f 5a f9 77 ed 2e d6 3f
       -0.12798032873608733 0.3466142341252762
0004f0 6b fc 30 0a 08 65 cb bf 95 d2 6e 04 9d 37 d2 3f
       -0.2140207338106593 0.28464436943912946
000500 ff 28 33 a0 2a e9 f1 bf c1 97 3f 1e b2 8f ab bf
       -1.1194254167372149 -0.05383068675273207
000510 41 4c 03 3e 85 57 c3 bf 5d 0c b5 8b 3b ff ee 3f
       -0.15110841300938385 0.9686563233048094
000520 d6 82 7e a2 f2 62 d4 3f 65 ab 64 e3 8e b5 e6 3f
       0.3185392939431443 0.7096628609918808
000530 97 7f 9b e7 20 45 d5 bf 7d c6 22 56 39 ee e6 bf
       -0.33234427087699586 -0.7165800745335243
000540 05 2f 68 62 71 69 ca bf be 25 f4 9c 03 f0 ee 3f
       -0.2063428621771594 0.9667985978605242
000550 ac 27 eb 8b 36 2f c7 3f 50 9f d9 33 5c e7 a3 bf
       0.18112832862817407 -0.038874512986523
000560 27 3b e5 2d 91 ff c3 bf 9b 4e 92 84 26 28 ea bf
       -0.15623678914058667 -0.8174011792456953
000570 8e 1a ff 42 ef 4c de 3f e4 55 3b 28 0e 03 e3 bf
       0.47344571631075716 -0.5941229615952435
000580 6f 64 b6 40 8e 56 e8 3f a2 4c 06 b2 16 fc d6 bf
       0.7605658782878332 -0.3591362703820754
000590 f4 4a 5a a1 66 3a e3 3f 7f 36 8d 6f 7d 73 dc bf
       0.6008790160579722 -0.4445489491816729
0005a0 dd 05 ff 74 24 88 de bf b0 bd 11 99 ef 39 e4 bf
       -0.47705947328003423 -0.6320722570071009
0005b0 43 ed af b0 be f4 d0 bf 71 71 53 67 ec 61 e5 3f
       -0.2649380422078204 0.668203546341415
0005c0 61 c7 ee 05 4d 2a ed bf 5e 16 8f bb 09 b8 ec 3f
       -0.911413680636752 0.8974655783901644
0005d0 ac 94 93 09 4c 76 c2 bf e4 4e 14 08 dc 0b b5 bf
       -0.14423513858415526 -0.0822122115826534
0005e0 d6 97 69 a1 6e fd ed 3f 01 40 95 0a d3 73 d6 3f
       0.9371865418040624 0.35081935914513457
0005f0 a5 82 39 96 3a 31 e6 3f 4e 13 63 23 ba 34 d9 bf
       0.6935093816828909 -0.39384320693743724
000600 b6 ce be 97 83 5a db bf 51 2a 6f 87 07 08 c8 bf
       -0.4273995382202246 -0.18774503815650914
000610 2b 08 61 59 26 a8 a3 bf a8 a4 d1 9a 37 6b df 3f
       -0.03839225617458938 0.49091901892695455
000620 d8 4d b6 51 72 28 e0 bf df 32 6c 72 db bc d2 3f
       -0.504937324136729 0.2927769296082214
000630 f1 22 4f 32 24 13 c9 3f 54 5f 8e ef 26 91 dc 3f
       0.19589664894581163 0.4463593806662989
000640 e4 e3 19 da ed d2 dc bf 68 71 a5 75 c5 c7 c7 3f
       -0.4503740911382563 0.18578403706022617
000650 0f 60 bd 7e b7 18 d9 bf a1 45 a8 64 cd 25 b1 bf
       -0.39213359238556306 -0.0669830675835983
000660 eb 5a 9d c8 5a 3c de bf ce d8 1e 8e f4 52 d4 bf
       -0.47243375388408876 -0.3175631893058267
000670 52 65 0a 34 1a ec b2 3f 44 b7 d7 af 99 86 e6 bf
       0.07391513605616254 -0.7039307054926458
000680 31 73 bd bc 77 af d1 3f 18 fc 88 67 c8 8b c5 bf
       0.2763346999325221 -0.16832833342957154
000690 0a f4 f1 77 01 2c d2 3f b8 91 85 69 89 0b b8 3f
       0.2839358970011864 0.0939260370847198
0006a0 aa 89 0b f8 83 04 c4 3f e7 09 a2 35 01 e2 a8 3f
       0.15638780223441745 0.048599279210083605
0006b0 50 d9 ed 89 2e 88 ca bf 76 1b 37 d1 f3 46 e4 3f
       -0.20728093848056028 0.6336611829982377
0006c0 39 9e 2c b6 c7 d4 d9 3f 27 45 ef bc cf ee ca 3f
       0.40361206808526934 0.21041294789623885
0006d0 c7 c2 5d 86 5b fe d2 3f 41 5c a0 f6 ee 75 99 3f
       0.2967747509165232 0.02486394291198857
0006e0 25 b3 a9 ab 99 4d e4 3f 90 d7 ed d1 5a f1 e3 3f
       0.634472689894754 0.6232122516801031
0006f0 75 75 a4 b9 c5 2b f3 bf fe 61 95 39 40 c2 87 bf
       -1.198186612287228 -0.01160097289782502
000700 93 f1 bc ac ed cf b0 3f 88 8c 5a da 91 02 90 3f
       0.06567273585546322 0.015634802772762885
000710 7f 36 16 9c 00 02 c3 3f 29 01 27 56 7b c1 99 3f
       0.1484986078398158 0.02515213692981991
000720 c6 a8 4f 8c 44 8c c1 bf 13 47 a9 4e 58 8e cb 3f
       -0.13709313250666905 0.2152815231407251
000730 60 50 7f 26 36 41 cb bf 5a d9 f5 76 e5 6e c2 bf
       -0.2129275978064724 -0.1440092879162858
000740 03 65 72 07 65 fe ae 3f 2a c2 da fc 72 ea ca 3f
       0.06053462711242654 0.2102798208848225
000750 37 f9 94 c2 1b 08 be 3f be 0d 29 31 ad c8 d1 bf
       0.11731122494254441 -0.27787332344834315
000760 f1 48 8d dc c4 21 c8 bf ed 35 78 46 0f 3a a6 bf
       -0.18853054780135595 -0.04341171012138632
000770 91 26 17 e2 5b d9 79 3f 0a 3a 6d db 8d af ae bf
       0.00631080524312612 -0.059933121715051454
000780 10 7c bb 24 fb de be bf ba a6 e1 9d 87 3a ce bf
       -0.12058992049013306 -0.23616118630461874
000790 76 dc f0 47 02 b9 d2 3f 37 68 c7 5f e7 bd b2 bf
       0.29254204774355885 -0.07321020210602645
0007a0 f2 f9 fb e6 3a 1d bf 3f b9 54 70 83 28 46 c3 bf
       0.12153976573242867 -0.15057856004628947
0007b0 5e 79 b6 0d 3e fe 88 bf 4e b4 0c 5f 1e 3b be bf
       -0.012203678887826083 -0.11808957882449642
0007c0 42 91 fb 80 41 c4 c8 3f 1d 68 c1 7c 31 86 c1 bf
       0.19348925397856404 -0.13690775481774234
0007d0 db e1 aa a6 b2 3f c0 3f 15 0b f4 e8 70 fc d2 bf
       0.12694390428602173 -0.296657779210521
0007e0 da c2 08 8e 45 55 82 bf 7d fa 57 63 88 93 d4 bf
       -0.008951705357590201 -0.3215046854165065
0007f0 c8 9f 18 bd fc 4e 8c bf f3 e7 b4 5d 54 40 c2 bf
       -0.013822531243093197 -0.14258818221588818

arr_3 f8 [1, 32]
000000 cd 50 bc 68 5e bd d7 bf 14 34 76 f5 f4 81 96 bf
       -0.37093315342032157 -0.021980121118350196
000010 42 93 6f 3b 7f 90 8f 3f 68 23 c9 cc f6 0b b6 bf
       0.01541232490667144 -0.08612005710268777
000020 85 e9 09 61 87 1c 8f bf 75 ba c0 05 42 f2 b2 bf
       -0.015191133164297774 -0.0740090621991188
000030 86 e0 6d 9e be eb ce bf 33 f4 33 bb fc 4b ce bf
       -0.24156935439873822 -0.23669394627350612
000040 fe 6c df 62 67 3d 88 3f 82 54 b0 f2 c1 3c b2 3f
       0.011835868553978997 0.07123958754557871
000050 97 9f 64 30 59 c5 ae 3f 7e 11 4c f5 e2 93 c8 bf
       0.060099398763042426 -0.19201313950919635
000060 4a 60 04 fb 2d 07 c1 bf 7e c5 f9 9e d3 e2 c2 bf
       -0.13303160435384803 -0.14754719984516024
000070 30 dc 0d dd 90 53 c9 bf 5c 35 21 ad 94 c1 cc bf
       -0.1978627280584262 -0.224657616172787
000080 aa ba b4 b8 ac 65 af 3f 74 be 04 eb 2f d9 c9 bf
       0.061322591349712255 -0.2019405267287656
000090 7f 54 0e 16 22 76 c6 3f c7 69 fa 82 28 8d b8 bf
       0.17548013760520928 -0.09590390393933666
0000a0 d0 73 3f 60 87 3c c0 bf 6b 05 cf 43 52 9c 9d bf
       -0.12684719276049217 -0.02891663111563984
0000b0 6a 1a 68 55 39 af a2 bf 88 60 ed 54 0a b2 b5 bf
       -0.03649310271798785 -0.08474793027324001
0000c0 bf eb da 3f 17 f8 cf bf d5 80 28 26 d8 77 dd bf
       -0.24975863092353554 -0.46043971754444374
0000d0 0f 82 03 60 50 1b a3 bf ff e5 f0 40 a0 15 b4 bf
       -0.037317764015600934 -0.0784549864337336
0000e0 24 2a 07 3a f9 c9 98 bf 11 47 9e 99 1f 0d 81 3f
       -0.02420796791720127 0.008325812221105207
0000f0 7a bb b9 e4 3a cd b6 3f d3 6f 0b fc 46 9c c1 bf
       0.0890690620815188 -0.1375817042052164

arr_4 f8 [32, 5]
000000 60 c2 aa da 91 ee f4 3f b9 ee a3 71 7b b6 ea bf
       1.3082445661240385 -0.8347756595171268
000010 a1 ce 1b 84 bb 9f df 3f 3b ef 7d 49 de 13 ec bf
       0.49412429715378364 -0.877425330676011
000020 17 30 00 aa 21 60 d7 3f 49 92 4d ca 1f 27 cc 3f
       0.36524240113863143 0.2199439752395327
000030 d0 de 74 83 62 10 c3 bf 97 6d 65 3d b7 98 c6 3f
       -0.14893752497459056 0.17653551576482293
000040 ed ce 0e 6e 3c 67 b6 bf 10 c5 ba 09 ea db d3 bf
       -0.0875127571769629 -0.3102974982276274
000050 10 02 f5 7c c6 e6 d0 bf ad 03 e5 9a 5b c1 e5 3f
       -0.2640854091914955 0.6798532510075482
000060 4d 5a b3 59 72 19 f1 3f 8c b4 46 23 da 34 f6 bf
       1.0687125686578327 -1.387903344915034
000070 b0 5f e3 da dc e1 d4 bf 91 98 c0 bd 7e 05 e9 bf
       -0.3262855660991546 -0.7819207864856869
000080 3e c9 be f7 04 91 d7 3f 97 90 77 10 7a f1 d1 bf
       0.36822628206131813 -0.2803635750590358
000090 2b 9d d4 12 1a 21 d4 3f 7f 6b 8d 7d 73 46 eb 3f
       0.314520376576598 0.8523499920078023
0000a0 bb 81 05 14 9c 42 c0 bf d5 f3 73 5e 43 f6 e1 3f
       -0.1270327661286624 0.5613114208969089
0000b0 d5 3d 07 6d 83 51 d7 bf 27 ff 8a b4 4c 86 e1 bf
       -0.3643501820306175 -0.5476439977864843
0000c0 61 47 47 f4 0a 4d ab 3f 4a 33 57 a8 9b 97 eb bf
       0.05332216483988251 -0.8622568405058726
0000d0 e6 38 85 71 99 b9 e9 3f c5 f4 51 a7 25 86 d6 bf
       0.8039061753459265 -0.3519376882539514
0000e0 c1 74 12 bc d5 0f dc 3f 99 04 05 25 71 c8 c4 bf
       0.43846648565688545 -0.16236700351331448
0000f0 1e 5d 4b 3b 0c e6 c3 3f 0a 6e cb f3 af da e7 bf
       0.1554580010913264 -0.7454452287306037
000100 6f f6 7d 01 19 72 cc 3f 10 0f 0e 66 26 1d db bf
       0.22223198483327475 -0.4236541744833042
000110 63 65 1e 3f c9 e4 e6 3f 3e 36 b3 39 f3 f0 e4 bf
       0.7154279930866035 -0.6544128539041549
000120 a0 03 48 8e ad 08 f1 bf cf f9 3b f0 3b 02 b8 3f
       -1.0646186406959046 0.09378409018606891
000130 15 4c 27 87 a5 e9 d0 3f af ce ac 91 ef ec e8 3f
       0.2642606563433117 0.7789228291716962
000140 15 b9 45 fe fa 54 d9 3f 41 6c b8 8a eb d4 dd 3f
       0.39581179457936005 0.46612061068453065
000150 63 62 46 bd 95 df d4 3f 1b 4d 0f 4e 1a ee fa bf
       0.3261465404880594 -1.6831305550775315
000160 12 5a 1a f8 f9 d8 e0 bf 71 d7 c3 a7 50 68 ef bf
       -0.5264863820801244 -0.9814837719593311
000170 bd 76 92 b9 d8 92 e9 3f 13 0b 29 d2 36 c1 de bf
       0.799175608106189 -0.48054285548657666
000180 c7 58 ba 41 8e 59 e4 3f 96 68 4f 37 65 d9 e0 bf
       0.6359320911167509 -0.5265375213887349
000190 3f 3d 9d 76 d9 16 f4 bf 54 e7 5e c8 67 b6 f1 3f
       -1.2555784829490475 1.107032568643679
0001a0 cf 03 bf 32 39 26 db 3f 0d 75 4a 82 68 f4 00 c0
       0.4242079730575456 -2.1193399600002807
0001b0 82 d1 e2 f0 6f 98 ee 3f 39 2b 56 52 1f 40 ef 3f
       0.9561080651097174 0.9765774353157674
0001c0 34 fd fd a4 44 19 da bf 0a 24 bd 00 c0 4d ea bf
       -0.407792245030538 -0.8219909681730553
0001d0 d9 d1 3f 0b 57 aa df 3f 45 e7 db fe da 09 8e bf
       0.49477172945560494 -0.0146672352816385
0001e0 9f 38 f5 f6 fe 83 d0 3f 5b e5 18 e0 2f c8 b5 bf
       0.2580563937853046 -0.08508586140751133
0001f0 82 58 4d ff 01 a2 d8 3f f5 67 d0 bb a6 97 ea bf
       0.38488817149971777 -0.8310121219867584
000200 1d b6 ee 43 6e f2 ea 3f ad 31 a7 45 c2 0b f5 3f
       0.8420935942464812 1.315370819170407
000210 e9 c6 9a 4c 3e 5e f7 bf 2c dc b5 f3 ef cc d8 bf
       -1.4605086319319815 -0.3875083808883939
000220 de a3 7b 25 d9 c3 d9 3f b6 17 34 dc ab b6 8d bf
       0.4025786272091504 -0.014508574159218895
000230 99 db 45 f1 52 18 b3 bf 9a b5 57 6b 27 ce e7 3f
       -0.074589904694092 0.7439152809653706
000240 d4 be bb 81 87 4b c7 3f 96 98 20 22 f8 3e e0 3f
       0.18199247202527735 0.5076866785573368
000250 94 2a 20 73 8b d7 e4 bf fb fd 20 f5 bf 47 f1 3f
       -0.6513116119907232 1.0800170493456551
000260 cf fd 4c 9c c0 dc e9 bf b0 a4 f8 f2 5f 1a dc bf
       -0.8081973126172047 -0.4391097901121368
000270 0e b8 8c 55 37 9e f7 bf d4 0b e7 98 8b 32 f5 3f
       -1.4761269895348081 1.3248401615862706
000280 b7 b6 55 22 bb 07 df bf cf b8 e6 7e de f9 e8 3f
       -0.48484686234483426 0.7805016020336327
000290 6c 34 4c 69 88 e3 e7 bf e2 e8 08 bd 2c 33 f1 3f
       -0.746525006923219 1.0749938377544415
0002a0 a3 02 85 ef 5f 74 ed bf 7a d2 6d 12 e1 fd f4 3f
       -0.9204559019199973 1.3119822234995397
0002b0 62 f1 d8 33 e6 17 f2 bf 59 29 3e 8b b2 5f dc bf
       -1.1308347726145134 -0.4433409080308102
0002c0 ec e3 f5 33 14 f8 f1 3f 9a fa 3d 30 e4 f6 fb bf
       1.1230661420543084 -1.7477762112099868
0002d0 5a a2 d5 aa bf e2 fc bf c7 23 ff 92 19 4d f9 3f
       -1.805358569452571 1.5813232175880658
0002e0 07 06 23 e8 06 e8 e4 3f 9b 8d 8b 03 39 17 f5 bf
       0.6533236059114537 -1.3181696070176716
0002f0 c9 1a 72 b8 47 be ea 3f c9 d7 90 98 a1 24 d5 bf
       0.8357275583701603 -0.33036079310420213
000300 31 ef 76 b3 23 57 d0 bf bf a8 ad 88 d1 40 d7 3f
       -0.25531857038344 0.36333120677467073
000310 d3 a5 79 31 6a bd d7 bf cc b0 fb e5 fa 88 b0 3f
       -0.37093596297799286 0.06459015002082252
000320 40 12 04 1c 86 d5 dc 3f 3a 4e 7a b2 e9 72 d9 bf
       0.45053246246269296 -0.397638725561794
000330 19 78 23 bd f0 a8 d3 3f 93 ab 12 50 e0 5a e2 3f
       0.3071863028579869 0.5735932887958931
000340 ae 00 5f 4a 32 47 f1 bf e2 7c 0a a6 ad 15 d1 bf
       -1.079881945144773 -0.26694813933313644
000350 6d a2 19 ec 93 9e c3 3f 5b c8 4a 7d dd ab f2 3f
       0.1532769110520066 1.1669592756484437
000360 4e 9c 64 a5 9e ce d0 bf 08 13 0a 47 5c 23 e0 bf
       -0.26261106635724196 -0.5043164622771608
000370 d7 f1 f7 58 bd 9f e9 bf 95 a6 26 32 93 4a dd 3f
       -0.8007494676272086 0.45767669580036713
000380 d2 e7 ed d2 eb 2f ed 3f 0b 2d 6e c3 31 cd e3 bf
       0.9120997543061498 -0.6187981431006916
000390 35 1c 8f 62 9f cf 94 3f b7 c8 33 d9 43 73 e4 bf
       0.020323267355504455 -0.6390704385978755
0003a0 a3 1a 53 31 68 cb d5 3f 48 e7 24 ca 79 83 ad 3f
       0.3405399781881135 0.05764370529727941
0003b0 76 78 4a b0 f2 4e f4 3f df 90 2b ff 5a 2e b1 bf
       1.269274414669352 -0.06711357812634187
0003c0 a2 5c 31 59 bc 48 e6 bf b4 88 fa 21 57 47 d6 bf
       -0.6963788740203152 -0.34810427015521417
0003d0 a3 2a 22 7f 2f e3 f7 3f 7e ee c6 1e 3f 75 c3 3f
       1.4929652181769277 0.1520155811575598
0003e0 0b a4 ed a0 7c 60 d1 3f f6 39 3c e9 ef 8d db 3f
       0.2715140887799527 0.43053815628891756
0003f0 c3 06 f9 b1 38 55 dd bf f9 98 cd b0 0f 4c f9 bf
       -0.4583265054717282 -1.5810696512576767
000400 71 c0 6e 44 49 6d fd 3f 1d 31 b1 2d fb 5b e3 3f
       1.8391812012814877 0.6049781696724811
000410 1b 9f e4 97 0a e8 d1 bf bb 66 37 fd 43 11 76 bf
       -0.27978768189722 -0.005387559492612655
000420 c0 e0 69 f0 e8 2d b5 3f 95 d2 45 2e f4 5c e4 3f
       0.08273177976105028 0.6363469032063046
000430 ae 25 64 8f b3 15 d8 bf bb 51 cb d8 6d 2b 71 bf
       -0.3763245487503707 -0.004191807832019052
000440 bd 88 77 7a 4c 91 e8 bf 06 a3 be c3 44 f4 b3 3f
       -0.7677366630489569 0.07794599322245341
000450 2e 98 c9 32 10 ed db 3f fa 50 6d ba 3e ca d6 bf
       0.4363441940280407 -0.3560940571380936
000460 a0 d2 9b a3 44 b8 dc bf 96 59 f1 94 1c 17 d4 3f
       -0.44874683358583844 0.31391062302773187
000470 f0 ea 63 bc 3c 35 ee bf 2b 40 35 8b ea ac f9 3f
       -0.9439986876962774 1.6047158658802896
000480 70 18 80 ab 6c b3 c4 bf cc 15 aa dc b8 24 ea bf
       -0.1617256009487309 -0.8169826803065745
000490 b6 06 8d 23 ab 79 e3 bf df a4 55 e2 31 0a cd 3f
       -0.6086021131852337 0.2268736224316745
0004a0 bc b6 7c 89 bd 54 f7 3f aa 0d a8 26 6d 48 e7 bf
       1.4581885691253964 -0.727591109753509
0004b0 69 fe 19 e9 f1 46 02 40 2f ae 32 c4 61 ba d8 3f
       2.2846410952623057 0.3863758483882717
0004c0 57 6b 55 86 78 ad fd bf d6 85 0b da 15 81 f4 bf
       -1.854851269474883 -1.2815149800666084
0004d0 79 cd 5f f3 ec 96 ed 3f e4 41 8d ac 49 d4 e7 3f
       0.9246735337641631 0.7446640367652972
0004e0 1e 86 48 ad 53 51 ec bf 4e 25 57 e4 fc 90 b1 3f
       -0.8849275955619225 0.06861858916012872
0004f0 64 c4 77 24 75 fb ec 3f 7c 90 9d d2 8a c5 c7 3f
       0.9056955063116559 0.1857160118480613

arr_5 f8 [1, 5]
000000 cc fd ef 95 0a 9c d3 3f 14 7d 68 8f 2f 33 d6 bf
       0.30639900820093824 -0.3468741322012232
000010 cd de 33 70 1e 44 b5 bf 76 98 e3 17 97 29 8f bf
       -0.08307066191980113 -0.015216045776878167
000020 1b 2a 89 9c f2 c2 c1 3f
       0.13876183169698283

arr_6 f8 [5, 1, 127, 127]
000000 ac 5c 4b e1 5b 98 f5 bf 6f a0 b1 0e 2c cb 05 c0
       -1.3496969986497716 -2.7242051265675893
000010 29 c8 16 11 72 59 d9 bf 8d e8 c4 a0 a7 cf 31 c0
       -0.3960843245396313 -17.81115155036291
000020 8d e8 c4 a0 a7 cf 31 c0 8d e8 c4 a0 a7 cf 31 c0
       -17.81115155036291 -17.81115155036291
000030 e3 7a ec d1 5b 03 19 c0 a4 8e 8e 51 59 96 25 c0
       -6.253279953058811 -10.793650196697236
000040 8d e8 c4 a0 a7 cf 31 c0 8d e8 c4 a0 a7 cf 31 c0
       -17.81115155036291 -17.81115155036291
000050 8d e8 c4 a0 a7 cf 31 c0 8d e8 c4 a0 a7 cf 31 c0
       -17.81115155036291 -17.81115155036291
000060 8d e8 c4 a0 a7 cf 31 c0 8d e8 c4 a0 a7 cf 31 c0
       -17.81115155036291 -17.81115155036291
000070 8d e8 c4 a0 a7 cf 31 c0 8d e8 c4 a0 a7 cf 31 c0
       -17.81115155036291 -17.81115155036291
000080 8d e8 c4 a0 a7 cf 31 c0 8d e8 c4 a0 a7 cf 31 c0
       -17.81115155036291 -17.81115155036291
000090 8d e8 c4 a0 a7 cf 31 c0 8d e8 c4 a0 a7 cf 31 c0
       -17.81115155036291 -17.81115155036291
0000a0 8d e8 c4 a0 a7 cf 31 c0 8d e8 c4 a0 a7 cf 31 c0
       -17.81115155036291 -17.81115155036291
0000b0 8d e8 c4 a0 a7 cf 31 c0 8d e8 c4 a0 a7 cf 31 c0
       -17.81115155036291 -17.81115155036291
0000c0 8d e8 c4 a0 a7 cf 31 c0 8d e8 c4 a0 a7 cf 31 c0
       -17.81115155036291 -17.81115155036291
0000d0 8d e8 c4 a0 a7 cf 31 c0 8d e8 c4 a0 a7 cf 31 c0
       -17.81115155036291 -17.81115155036291
0000e0 8d e8 c4 a0 a7 cf 31 c0 8d e8 c4 a0 a7 cf 31 c0
       -17.81115155036291 -17.81115155036291
0000f0 8d e8 c4 a0 a7 cf 31 c0 8d e8 c4 a0 a7 cf 31 c0
       -17.81115155036291 -17.81115155036291
000100 8d e8 c4 a0 a7 cf 31 c0 8d e8 c4 a0 a7 cf 31 c0
       -17.81115155036291 -17.81115155036291
000110 8d e8 c4 a0 a7 cf 31 c0 b3 59 41 29 e9 2d 21 c0
       -17.81115155036291 -8.589669503428786
000120 8d e8 c4 a0 a7 cf 31 c0 8d e8 c4 a0 a7 cf 31 c0
       -17.81115155036291 -17.81115155036291
000130 8d e8 c4 a0 a7 cf 31 c0 8d e8 c4 a0 a7 cf 31 c0
       -17.81115155036291 -17.81115155036291
000140 8d e8 c4 a0 a7 cf 31 c0 8d e8 c4 a0 a7 cf 31 c0
       -17.81115155036291 -17.81115155036291
000150 8d e8 c4 a0 a7 cf 31 c0 8d e8 c4 a0 a7 cf 31 c0
       -17.81115155036291 -17.81115155036291
000160 8d e8 c4 a0 a7 cf 31 c0 8d e8 c4 a0 a7 cf 31 c0
       -17.81115155036291 -17.81115155036291
000170 8d e8 c4 a0 a7 cf 31 c0 8d e8 c4 a0 a7 cf 31 c0
       -17.81115155036291 -17.81115155036291
000180 8d e8 c4 a0 a7 cf 31 c0 8d e8 c4 a0 a7 cf 31 c0
       -17.81115155036291 -17.81115155036291
000190 8d e8 c4 a0 a7 cf 31 c0 8d e8 c4 a0 a7 cf 31 c0
       -17.81115155036291 -17.81115155036291
0001a0 8d e8 c4 a0 a7 cf 31 c0 8d e8 c4 a0 a7 cf 31 c0
       -17.81115155036291 -17.81115155036291
0001b0 8d e8 c4 a0 a7 cf 31 c0 8d e8 c4 a0 a7 cf 31 c0
       -17.81115155036291 -17.81115155036291
0001c0 8d e8 c4 a0 a7 cf 31 c0 8d e8 c4 a0 a7 cf 31 c0
       -17.81115155036291 -17.81115155036291
0001d0 8d e8 c4 a0 a7 cf 31 c0 8d e8 c4 a0 a7 cf 31 c0
       -17.81115155036291 -17.81115155036291
0001e0 8d e8 c4 a0 a7 cf 31 c0 8d e8 c4 a0 a7 cf 31 c0
       -17.81115155036291 -17.81115155036291
0001f0 8d e8 c4 a0 a7 cf 31 c0 8d e8 c4 a0 a7 cf 31 c0
       -17.81115155036291 -17.81115155036291
000200 8d e8 c4 a0 a7 cf 31 c0 8d e8 c4 a0 a7 cf 31 c0
       -17.81115155036291 -17.81115155036291
000210 8d e8 c4 a0 a7 cf 31 c0 8d e8 c4 a0 a7 cf 31 c0
       -17.81115155036291 -17.81115155036291
000220 8d e8 c4 a0 a7 cf 31 c0 8d e8 c4 a0 a7 cf 31 c0
       -17.81115155036291 -17.81115155036291
000230 8d e8 c4 a0 a7 cf 31 c0 8d e8 c4 a0 a7 cf 31 c0
       -17.81115155036291 -17.81115155036291
000240 8d e8 c4 a0 a7 cf 31 c0 8d e8 c4 a0 a7 cf 31 c0
       -17.81115155036291 -17.81115155036291
000250 8d e8 c4 a0 a7 cf 31 c0 8d e8 c4 a0 a7 cf 31 c0
       -17.81115155036291 -17.81115155036291
000260 8d e8 c4 a0 a7 cf 31 c0 8d e8 c4 a0 a7 cf 31 c0
       -17.81115155036291 -17.81115155036291
000270 8d e8 c4 a0 a7 cf 31 c0 8d e8 c4 a0 a7 cf 31 c0
       -17.81115155036291 -17.81115155036291
000280 8d e8 c4 a0 a7 cf 31 c0 8d e8 c4 a0 a7 cf 31 c0
       -17.81115155036291 -17.81115155036291
000290 8d e8 c4 a0 a7 cf 31 c0 8d e8 c4 a0 a7 cf 31 c0
       -17.81115155036291 -17.81115155036291
0002a0 8d e8 c4 a0 a7 cf 31 c0 8d e8 c4 a0 a7 cf 31 c0
       -17.81115155036291 -17.81115155036291
0002b0 8d e8 c4 a0 a7 cf 31 c0 8d e8 c4 a0 a7 cf 31 c0
       -17.81115155036291 -17.81115155036291
0002c0 8d e8 c4 a0 a7 cf 31 c0 8d e8 c4 a0 a7 cf 31 c0
       -17.81115155036291 -17.81115155036291
0002d0 8d e8 c4 a0 a7 cf 31 c0 8d e8 c4 a0 a7 cf 31 c0
       -17.81115155036291 -17.81115155036291
0002e0 8d e8 c4 a0 a7 cf 31 c0 8d e8 c4 a0 a7 cf 31 c0
       -17.81115155036291 -17.81115155036291
0002f0 8d e8 c4 a0 a7 cf 31 c0 8d e8 c4 a0 a7 cf 31 c0
       -17.81115155036291 -17.81115155036291
000300 8d e8 c4 a0 a7 cf 31 c0 8d e8 c4 a0 a7 cf 31 c0
       -17.81115155036291 -17.81115155036291
000310 8d e8 c4 a0 a7 cf 31 c0 8d e8 c4 a0 a7 cf 31 c0
       -17.81115155036291 -17.81115155036291
000320 8d e8 c4 a0 a7 cf 31 c0 8d e8 c4 a0 a7 cf 31 c0
       -17.81115155036291 -17.81115155036291
000330 8d e8 c4 a0 a7 cf 31 c0 8d e8 c4 a0 a7 cf 31 c0
       -17.81115155036291 -17.81115155036291
000340 8d e8 c4 a0 a7 cf 31 c0 8d e8 c4 a0 a7 cf 31 c0
       -17.81115155036291 -17.81115155036291
000350 8d e8 c4 a0 a7 cf 31 c0 8d e8 c4 a0 a7 cf 31 c0
       -17.81115155036291 -17.81115155036291
000360 8d e8 c4 a0 a7 cf 31 c0 8d e8 c4 a0 a7 cf 31 c0
       -17.81115155036291 -17.81115155036291
000370 8d e8 c4 a0 a7 cf 31 c0 8d e8 c4 a0 a7 cf 31 c0
       -17.81115155036291 -17.81115155036291
000380 8d e8 c4 a0 a7 cf 31 c0 8d e8 c4 a0 a7 cf 31 c0
       -17.81115155036291 -17.81115155036291
000390 8d e8 c4 a0 a7 cf 31 c0 8d e8 c4 a0 a7 cf 31 c0
       -17.81115155036291 -17.81115155036291
0003a0 8d e8 c4 a0 a7 cf 31 c0 8d e8 c4 a0 a7 cf 31 c0
       -17.81115155036291 -17.81115155036291
0003b0 8d e8 c4 a0 a7 cf 31 c0 8d e8 c4 a0 a7 cf 31 c0
       -17.81115155036291 -17.81115155036291
0003c0 8d e8 c4 a0 a7 cf 31 c0 8d e8 c4 a0 a7 cf 31 c0
       -17.81115155036291 -17.81115155036291
0003d0 8d e8 c4 a0 a7 cf 31 c0 8d e8 c4 a0 a7 cf 31 c0
       -17.81115155036291 -17.81115155036291
0003e0 8d e8 c4 a0 a7 cf 31 c0 8d e8 c4 a0 a7 cf 31 c0
       -17.81115155036291 -17.81115155036291
0003f0 8d e8 c4 a0 a7 cf 31 c0 b5 12 6e 50 d6 19 e0 bf
       -17.81115155036291 -0.5031539507768544
000400 7c 4b 78 5b b4 06 32 c0 56 44 d6 e7 1d 2c 1a c0
       -18.026189534062254 -6.543082830860916
000410 61 23 b5 ee 4c 83 15 c0 54 4b 4f ea 24 30 ee bf
       -5.3782231615121825 -0.9433769775736018
000420 7c 4b 78 5b b4 06 32 c0 7c 4b 78 5b b4 06 32 c0
       -18.026189534062254 -18.026189534062254
000430 7c 4b 78 5b b4 06 32 c0 7c 4b 78 5b b4 06 32 c0
       -18.026189534062254 -18.026189534062254
000440 68 78 11 f5 eb 35 27 c0 bb 77 88 c2 ae f3 2a c0
       -11.605315836317644 -13.475942687185912
000450 7c 4b 78 5b b4 06 32 c0 7c 4b 78 5b b4 06 32 c0
       -18.026189534062254 -18.026189534062254
000460 7c 4b 78 5b b4 06 32 c0 7c 4b 78 5b b4 06 32 c0
       -18.026189534062254 -18.026189534062254
000470 7c 4b 78 5b b4 06 32 c0 7c 4b 78 5b b4 06 32 c0
       -18.026189534062254 -18.026189534062254
000480 7c 4b 78 5b b4 06 32 c0 7c 4b 78 5b b4 06 32 c0
       -18.026189534062254 -18.026189534062254
000490 7c 4b 78 5b b4 06 32 c0 7c 4b 78 5b b4 06 32 c0
       -18.026189534062254 -18.026189534062254
0004a0 7c 4b 78 5b b4 06 32 c0 7c 4b 78 5b b4 06 32 c0
       -18.026189534062254 -18.026189534062254
0004b0 7c 4b 78 5b b4 06 32 c0 7c 4b 78 5b b4 06 32 c0
       -18.026189534062254 -18.026189534062254
0004c0 7c 4b 78 5b b4 06 32 c0 7c 4b 78 5b b4 06 32 c0
       -18.026189534062254 -18.026189534062254
0004d0 7c 4b 78 5b b4 06 32 c0 7c 4b 78 5b b4 06 32 c0
       -18.026189534062254 -18.026189534062254
0004e0 7c 4b 78 5b b4 06 32 c0 7c 4b 78 5b b4 06 32 c0
       -18.026189534062254 -18.026189534062254
0004f0 7c 4b 78 5b b4 06 32 c0 7c 4b 78 5b b4 06 32 c0
       -18.026189534062254 -18.026189534062254
000500 7c 4b 78 5b b4 06 32 c0 7c 4b 78 5b b4 06 32 c0
       -18.026189534062254 -18.026189534062254
000510 7c 4b 78 5b b4 06 32 c0 7c 4b 78 5b b4 06 32 c0
       -18.026189534062254 -18.026189534062254
000520 7c 4b 78 5b b4 06 32 c0 7c 4b 78 5b b4 06 32 c0
       -18.026189534062254 -18.026189534062254
000530 7c 4b 78 5b b4 06 32 c0 7c 4b 78 5b b4 06 32 c0
       -18.026189534062254 -18.026189534062254
000540 7c 4b 78 5b b4 06 32 c0 7c 4b 78 5b b4 06 32 c0
       -18.026189534062254 -18.026189534062254
000550 7c 4b 78 5b b4 06 32 c0 7c 4b 78 5b b4 06 32 c0
       -18.026189534062254 -18.026189534062254
000560 7c 4b 78 5b b4 06 32 c0 7c 4b 78 5b b4 06 32 c0
       -18.026189534062254 -18.026189534062254
000570 7c 4b 78 5b b4 06 32 c0 7c 4b 78 5b b4 06 32 c0
       -18.026189534062254 -18.026189534062254
000580 7c 4b 78 5b b4 06 32 c0 7c 4b 78 5b b4 06 32 c0
       -18.026189534062254 -18.026189534062254
000590 7c 4b 78 5b b4 06 32 c0 7c 4b 78 5b b4 06 32 c0
       -18.026189534062254 -18.026189534062254
0005a0 7c 4b 78 5b b4 06 32 c0 7c 4b 78 5b b4 06 32 c0
       -18.026189534062254 -18.026189534062254
0005b0 7c 4b 78 5b b4 06 32 c0 7c 4b 78 5b b4 06 32 c0
       -18.026189534062254 -18.026189534062254
0005c0 7c 4b 78 5b b4 06 32 c0 7c 4b 78 5b b4 06 32 c0
       -18.026189534062254 -18.026189534062254
0005d0 7c 4b 78 5b b4 06 32 c0 7c 4b 78 5b b4 06 32 c0
       -18.026189534062254 -18.026189534062254
0005e0 7c 4b 78 5b b4 06 32 c0 7c 4b 78 5b b4 06 32 c0
       -18.026189534062254 -18.026189534062254
0005f0 7c 4b 78 5b b4 06 32 c0 7c 4b 78 5b b4 06 32 c0
       -18.026189534062254 -18.026189534062254
000600 7c 4b 78 5b b4 06 32 c0 7c 4b 78 5b b4 06 32 c0
       -18.026189534062254 -18.026189534062254
000610 7c 4b 78 5b b4 06 32 c0 7c 4b 78 5b b4 06 32 c0
       -18.026189534062254 -18.026189534062254
000620 7c 4b 78 5b b4 06 32 c0 7c 4b 78 5b b4 06 32 c0
       -18.026189534062254 -18.026189534062254
000630 7c 4b 78 5b b4 06 32 c0 7c 4b 78 5b b4 06 32 c0
       -18.026189534062254 -18.026189534062254
000640 7c 4b 78 5b b4 06 32 c0 7c 4b 78 5b b4 06 32 c0
       -18.026189534062254 -18.026189534062254
000650 7c 4b 78 5b b4 06 32 c0 7c 4b 78 5b b4 06 32 c0
       -18.026189534062254 -18.026189534062254
000660 7c 4b 78 5b b4 06 32 c0 7c 4b 78 5b b4 06 32 c0
       -18.026189534062254 -18.026189534062254
000670 7c 4b 78 5b b4 06 32 c0 7c 4b 78 5b b4 06 32 c0
       -18.026189534062254 -18.026189534062254
000680 7c 4b 78 5b b4 06 32 c0 7c 4b 78 5b b4 06 32 c0
       -18.026189534062254 -18.026189534062254
000690 7c 4b 78 5b b4 06 32 c0 7c 4b 78 5b b4 06 32 c0
       -18.026189534062254 -18.026189534062254
0006a0 7c 4b 78 5b b4 06 32 c0 7c 4b 78 5b b4 06 32 c0
       -18.026189534062254 -18.026189534062254
0006b0 7c 4b 78 5b b4 06 32 c0 7c 4b 78 5b b4 06 32 c0
       -18.026189534062254 -18.026189534062254
0006c0 7c 4b 78 5b b4 06 32 c0 7c 4b 78 5b b4 06 32 c0
       -18.026189534062254 -18.026189534062254
0006d0 7c 4b 78 5b b4 06 32 c0 7c 4b 78 5b b4 06 32 c0
       -18.026189534062254 -18.026189534062254
0006e0 7c 4b 78 5b b4 06 32 c0 7c 4b 78 5b b4 06 32 c0
       -18.026189534062254 -18.026189534062254
0006f0 7c 4b 78 5b b4 06 32 c0 7c 4b 78 5b b4 06 32 c0
       -18.026189534062254 -18.026189534062254
000700 7c 4b 78 5b b4 06 32 c0 7c 4b 78 5b b4 06 32 c0
       -18.026189534062254 -18.026189534062254
000710 7c 4b 78 5b b4 06 32 c0 7c 4b 78 5b b4 06 32 c0
       -18.026189534062254 -18.026189534062254
000720 7c 4b 78 5b b4 06 32 c0 7c 4b 78 5b b4 06 32 c0
       -18.026189534062254 -18.026189534062254
000730 7c 4b 78 5b b4 06 32 c0 7c 4b 78 5b b4 06 32 c0
       -18.026189534062254 -18.026189534062254
000740 7c 4b 78 5b b4 06 32 c0 7c 4b 78 5b b4 06 32 c0
       -18.026189534062254 -18.026189534062254
000750 7c 4b 78 5b b4 06 32 c0 7c 4b 78 5b b4 06 32 c0
       -18.026189534062254 -18.026189534062254
000760 7c 4b 78 5b b4 06 32 c0 7c 4b 78 5b b4 06 32 c0
       -18.026189534062254 -18.026189534062254
000770 7c 4b 78 5b b4 06 32 c0 7c 4b 78 5b b4 06 32 c0
       -18.026189534062254 -18.026189534062254
000780 7c 4b 78 5b b4 06 32 c0 7c 4b 78 5b b4 06 32 c0
       -18.026189534062254 -18.026189534062254
000790 7c 4b 78 5b b4 06 32 c0 7c 4b 78 5b b4 06 32 c0
       -18.026189534062254 -18.026189534062254
0007a0 7c 4b 78 5b b4 06 32 c0 7c 4b 78 5b b4 06 32 c0
       -18.026189534062254 -18.026189534062254
0007b0 7c 4b 78 5b b4 06 32 c0 7c 4b 78 5b b4 06 32 c0
       -18.026189534062254 -18.026189534062254
0007c0 7c 4b 78 5b b4 06 32 c0 7c 4b 78 5b b4 06 32 c0
       -18.026189534062254 -18.026189534062254
0007d0 7c 4b 78 5b b4 06 32 c0 7c 4b 78 5b b4 06 32 c0
       -18.026189534062254 -18.026189534062254
0007e0 7c 4b 78 5b b4 06 32 c0 7c 4b 78 5b b4 06 32 c0
       -18.026189534062254 -18.026189534062254
0007f0 e5 28 58 4a 4c ce dd bf 80 14 15 8f 25 d9 28 c0
       -0.4657164312381055 -12.424114676783802
